src_knn_cluster/seed0/FOLD1_.pth (torch, 798771 bytes, 31 tensors)

batch_norm1.weight f4 [1162]
0	0x3f7289f3	0.94741744
1	0x3f65533f	0.8958015
2	0x3f727d71	0.9472266
3	0x3f6599ef	0.8968801
4	0x3f6b2346	0.918507
5	0x3f6d9212	0.9280101
6	0x3f7e0369	0.99223953
7	0x3f66a0df	0.9008922
8	0x3f688c20	0.90838814
9	0x3f69d5c4	0.91341805
10	0x3f56b836	0.83874834
11	0x3f67c632	0.905368
12	0x3f6f40e5	0.93458396
13	0x3f71869d	0.9434603
14	0x3f767431	0.96271044
15	0x3f5bca5d	0.85855657
16	0x3f742491	0.95368296
17	0x3f7c3b77	0.98528236
18	0x3f67b52f	0.9051084
19	0x3f678e60	0.9045162
20	0x3f6474a0	0.89240456
21	0x3f6318d1	0.8870974
22	0x3f5ea14f	0.8696489
23	0x3f5e54ff	0.86848444
24	0x3f6a8a5b	0.91617364
25	0x3f730887	0.94934887
26	0x3f78415a	0.9697472
27	0x3f63d612	0.8899852
28	0x3f7cdf22	0.98777974
29	0x3f797727	0.9744744
30	0x3f68977b	0.9085614
31	0x3f745c01	0.95452887
32	0x3f5d8ccd	0.8654297
33	0x3f79a508	0.9751744
34	0x3f7ab39b	0.97930306
35	0x3f7779d6	0.9667028
36	0x3f5b5b6d	0.8568638
37	0x3f576760	0.8414211
38	0x3f713c89	0.94232994
39	0x3f596b72	0.84929574
40	0x3f7bc048	0.9834027
41	0x3f6e0b2e	0.9298581
42	0x3f796396	0.9741758
43	0x3f7390a9	0.9514261
44	0x3f7f59c6	0.9974636
45	0x3f5b571b	0.8567979
46	0x3f71f27c	0.94510627
47	0x3f74a627	0.9556603
48	0x3f764405	0.9619754
49	0x3f5e3a5c	0.868078
50	0x3f63a384	0.8892138
51	0x3f68adef	0.908904
52	0x3f6f1d30	0.9340391
53	0x3f6ac7a3	0.9171087
54	0x3f6ae400	0.9175415
55	0x3f660a9f	0.89859957
56	0x3f5b4f7b	0.8566815
57	0x3f5d0578	0.8633647
58	0x3f6b8012	0.91992295
59	0x3f6c1462	0.922186
60	0x3f651f17	0.89500564
61	0x3f764119	0.9619308
62	0x3f7f79fe	0.9979552
63	0x3f5c3254	0.86014295
64	0x3f7c59d9	0.98574597
65	0x3f6bf459	0.9216972
66	0x3f6009d9	0.87515026
67	0x3f6dac2a	0.92840827
68	0x3f5fbb6c	0.8739536
69	0x3f6654a5	0.8997291
70	0x3f7b0d81	0.9806748
71	0x3f747dca	0.9550444
72	0x3f705fc4	0.93896127
73	0x3f6a1ae9	0.9144731
74	0x3f64da87	0.89395946
75	0x3f7a442e	0.97760284
76	0x3f742173	0.9536354
77	0x3f5c3c01	0.8602906
78	0x3f615be2	0.8803083
79	0x3f6b63d2	0.9194919
80	0x3f57c9bd	0.84292203
81	0x3f6bff24	0.9218619
82	0x3f83a62d	1.0285088
83	0x3f7493f9	0.9553829
84	0x3f86ffc8	1.0546808
85	0x3f652e48	0.89523745
86	0x3f702785	0.938103
87	0x3f66206f	0.8989324
88	0x3f7471ff	0.95486444
89	0x3f7c0318	0.9844222
90	0x3f650ca6	0.89472425
91	0x3f7acaab	0.97965497
92	0x3f64eeb2	0.8942672
93	0x3f65bf2f	0.8974485
94	0x3f653c70	0.89545345
95	0x3f601035	0.8752473
96	0x3f607c30	0.87689495
97	0x3f7726bb	0.96543473
98	0x3f522654	0.82089734
99	0x3f641e10	0.8910837
100	0x3f6ea1c3	0.9321558
101	0x3f62de3d	0.8862036
102	0x3f65fb3c	0.8983648
103	0x3f5d8189	0.8652578
104	0x3f635f8c	0.8881767
105	0x3f65971e	0.8968371
106	0x3f609be3	0.87737864
107	0x3f7ca014	0.9868176
108	0x3f696181	0.91164404
109	0x3f7ce5b3	0.98787993
110	0x3f784c9b	0.9699189
111	0x3f6db6d3	0.9285709
112	0x3f63d8af	0.8900251
113	0x3f6c386a	0.9227358
114	0x3f7035fb	0.9383237
115	0x3f5bcc7c	0.85858893
116	0x3f64c716	0.8936628
117	0x3f59770b	0.8494727
118	0x3f67efbf	0.906002
119	0x3f619e18	0.88131857
120	0x3f6b2337	0.9185061
121	0x3f653c09	0.8954473
122	0x3f6e63b6	0.93120897
123	0x3f69c2ba	0.91312754
124	0x3f5eaabd	0.86979276
125	0x3f7389ff	0.9513244
126	0x3f662602	0.89901745
127	0x3f6bae7d	0.92063123
128	0x3f6b04f1	0.91804415
129	0x3f5f288f	0.8717126
130	0x3f6d79c0	0.927639
131	0x3f66d3a8	0.9016671
132	0x3f704101	0.9384919
133	0x3f6e8f6f	0.9318761
134	0x3f5e505a	0.86841357
135	0x3f5fdc96	0.8744596
136	0x3f790405	0.9727176
137	0x3f7aa3f6	0.97906435
138	0x3f5f7c02	0.87298596
139	0x3f6c1954	0.9222615
140	0x3f705128	0.93873835
141	0x3f665867	0.8997864
142	0x3f71cd86	0.9445423
143	0x3f67e130	0.90577984
144	0x3f75fb16	0.9608625
145	0x3f64dcc2	0.8939935
146	0x3f764f27	0.96214527
147	0x3f799d03	0.97505206
148	0x3f59a27d	0.8501356
149	0x3f67053f	0.9024238
150	0x3f6099a3	0.8773443
151	0x3f6db317	0.92851394
152	0x3f5ee0bb	0.8706166
153	0x3f7182ad	0.9434002
154	0x3f5fd49a	0.8743378
155	0x3f6aed2d	0.9176815
156	0x3f7e83a4	0.9941962
157	0x3f639585	0.88900024
158	0x3f4f54cf	0.8098878
159	0x3f69d486	0.9133991
160	0x3f61c214	0.88186765
161	0x3f5fbb86	0.87395513
162	0x3f4f9abf	0.810955
163	0x3f63faca	0.8905455
164	0x3f82d9fa	1.0222771
165	0x3f853560	1.0406914
166	0x3f72c524	0.9483206
167	0x3f6563ea	0.8960558
168	0x3f5ea276	0.86966646
169	0x3f53400a	0.8251959
170	0x3f5d566e	0.86460006
171	0x3f6add85	0.9174426
172	0x3f7a31a3	0.9773199
173	0x3f655ebc	0.8959768
174	0x3f76730f	0.96269315
175	0x3f5cdf4c	0.86278224
176	0x3f7d369d	0.9891146
177	0x3f76de93	0.9643337
178	0x3f709603	0.939789
179	0x3f720c31	0.9454985
180	0x3f5d27d6	0.8638891
181	0x3f724e3e	0.9465064
182	0x3f78d541	0.972004
183	0x3f63c28f	0.8896875
184	0x3f66e37e	0.90190876
185	0x3f7090df	0.93971056
186	0x3f5aa34e	0.85405433
187	0x3f810088	1.0078287
188	0x3f71b2bc	0.9441335
189	0x3f5f97e6	0.87341154
190	0x3f701390	0.9377985
191	0x3f658ef2	0.8967124
192	0x3f79dda1	0.97603804
193	0x3f7ae8ff	0.98011774
194	0x3f5dc926	0.86635053
195	0x3f632c48	0.8873944
196	0x3f70ebfe	0.94110096
197	0x3f6ebdf1	0.9325858
198	0x3f6e2d02	0.93037426
199	0x3f6c2f76	0.9225992
200	0x3f64b65d	0.89340764
201	0x3f6a0ea4	0.9142859
202	0x3f7000bb	0.93751115
203	0x3f636f5e	0.8884181
204	0x3f6cd364	0.92510056
205	0x3f6e6aa5	0.93131477
206	0x3f5d9abf	0.8656425
207	0x3f638bfb	0.8888547
208	0x3f5dfec0	0.8671684
209	0x3f6d82ca	0.92777693
210	0x3f731d81	0.94966894
211	0x3f6898d1	0.9085818
212	0x3f69e8cf	0.9137086
213	0x3f749df1	0.955535
214	0x3f7c9644	0.9866679
215	0x3f73f822	0.95300496
216	0x3f6a6a03	0.9156801
217	0x3f6b8df4	0.9201348
218	0x3f6dac9a	0.92841494
219	0x3f7118ae	0.94178283
220	0x3f633065	0.8874572
221	0x3f668e7c	0.90061164
222	0x3f6fdec9	0.9369932
223	0x3f697fa4	0.9121039
224	0x3f693223	0.9109213
225	0x3f73a895	0.9517911
226	0x3f6cafbe	0.9245566
227	0x3f6441be	0.89162815
228	0x3f79132a	0.9729487
229	0x3f5a8622	0.8536092
230	0x3f70bdfe	0.94039905
231	0x3f6622b5	0.8989671
232	0x3f70addc	0.9401529
233	0x3f60d5f8	0.8782649
234	0x3f69489b	0.9112641
235	0x3f622132	0.883319
236	0x3f6d4e97	0.92698044
237	0x3f60e4ce	0.8784913
238	0x3f807d41	1.0038224
239	0x3f5aafaf	0.8542432
240	0x3f7e88dd	0.99427587
241	0x3f65fbc1	0.8983727
242	0x3f6871a3	0.90798396
243	0x3f67afa5	0.9050239
244	0x3f75c575	0.9600442
245	0x3f7ba075	0.98291713
246	0x3f7d4866	0.98938596
247	0x3f672dc3	0.903042
248	0x3f7b0564	0.980551
249	0x3f6ff6e5	0.93736106
250	0x3f7998d7	0.9749884
251	0x3f6e6611	0.9312449
252	0x3f6942ca	0.9111754
253	0x3f6d651c	0.92732406
254	0x3f613ab8	0.8798022
255	0x3f6c4fb5	0.92309123

batch_norm1.bias f4 [1162]
0	0xbd08366d	-0.03325503
1	0xbd4ebec3	-0.050474893
2	0x3c3831c1	0.011242331
3	0xbc51b0cb	-0.012798498
4	0x3c0afee4	0.008483622
5	0x3b45e654	0.00301971
6	0x3dd0ee6d	0.10201726
7	0xbd1f6d7c	-0.03892277
8	0xbc4c5b95	-0.012473007
9	0x3d031ef4	0.03201194
10	0x3b3f9861	0.0029235112
11	0xbc06125f	-0.008183091
12	0x3d897654	0.067120224
13	0x3c517a3b	0.01278549
14	0x3d9590c5	0.07303003
15	0xb990bbd2	-0.00027605757
16	0x3d89c64d	0.06727276
17	0x3c1b8319	0.009491705
18	0xbc28700f	-0.010280623
19	0xbd577c5f	-0.052608844
20	0x3d92e4f9	0.07172579
21	0x3cb3e6ed	0.0219607
22	0xbd28f0a6	-0.041245125
23	0x3d179210	0.03700453
24	0xbcd92b44	-0.026509888
25	0x3c4f11a2	0.012638481
26	0xbd1d5a4e	-0.0384162
27	0x3c949b4e	0.018140461
28	0x3c274ce7	0.010211206
29	0x3c8df0b4	0.01732669
30	0xbcdf0980	-0.02722621
31	0xbda0a707	-0.07844358
32	0x3cd2b28a	0.0257199
33	0x3d5edc85	0.054409523
34	0x3d1866d3	0.037207436
35	0x3c0b6175	0.008507122
36	0x3d4308c6	0.04761579
37	0xbd27290d	-0.040810633
38	0xbcd465c9	-0.025927441
39	0x3d532690	0.051550448
40	0xbadebc7e	-0.0016993431
41	0xbd1cc428	-0.038273007
42	0xbd485d50	-0.048917115
43	0x3cc410f5	0.023933867
44	0x3be9ac4a	0.007131134
45	0x3babf39c	0.0052475464
46	0x3cdb95f7	0.026804907
47	0x3c43fe47	0.01196248
48	0xbc645358	-0.013935886
49	0x3d743914	0.059624746
50	0x3d5f4335	0.054507453
51	0xbcd2aeb9	-0.02571808
52	0x3c952fcc	0.018211268
53	0x3d036463	0.032078158
54	0x3c88f6de	0.016719278
55	0x3d3441dd	0.044008125
56	0x3b83db68	0.004023958
57	0xbd6c115e	-0.05763375
58	0xbd5f80fe	-0.054566376
59	0xbd71dda7	-0.059049275
60	0xbd63429e	-0.055483453
61	0x3c77f3fe	0.015133856
62	0xbcf72493	-0.030168807
63	0x3b814dbf	0.0039460356
64	0xbbd155b5	-0.006388391
65	0xbbbbf667	-0.0057361606
66	0xbcd941d7	-0.026520653
67	0xbd235206	-0.039873146
68	0x3cc97534	0.02459202
69	0xb9e628a4	-0.00043899298
70	0xbb914ce1	-0.0044342135
71	0xbd0d32ad	-0.034472156
72	0xbc7e60de	-0.015526025
73	0xbd07f92b	-0.03319661
74	0x3cb50db0	0.022101253
75	0x3cef0964	0.029179282
76	0xbdbd6f19	-0.09249706
77	0x3cb60dd1	0.022223385
78	0xbd3a76c5	-0.045523424
79	0x3d4314c1	0.047627214
80	0x3ce21f6c	0.027602874
81	0x3ba65acc	0.005076742
82	0x3a71f494	0.00092298654
83	0x3d9995d8	0.074992836
84	0x3def5f11	0.11688054
85	0x3d01109e	0.031509988
86	0x3d4ddd20	0.05025971
87	0xbd3d4c5b	-0.046215396
88	0x3d88b94f	0.0667597
89	0x3d20ea68	0.039286047
90	0x3d417d63	0.04723872
91	0xbd23fa11	-0.040033404
92	0xbc5a3043	-0.013317171
93	0xbb049cb3	-0.0020235002
94	0xbd3be7d5	-0.04587539
95	0xbc77cef7	-0.015125028
96	0x3e24743d	0.16059966
97	0x3d201f47	0.03909233
98	0x3d0a58ac	0.03377597
99	0x3cf61ca8	0.030042961
100	0xbce2e1c9	-0.027695553
101	0xbb6dce90	-0.003628645
102	0x3d39878d	0.045295287
103	0x3c09572c	0.0083826
104	0x3d72c04f	0.05926543
105	0x3bdd8903	0.006760718
106	0xbd7754cd	-0.060383607
107	0xbc8f039b	-0.017457774
108	0x3c449943	0.011999431
109	0x3d449653	0.047994923
110	0xbd2781aa	-0.04089514
111	0x3d1ba22f	0.037996467
112	0x3b1045c2	0.0022014235
113	0xbcf6e12f	-0.030136673
114	0x3d81b1a3	0.0633271
115	0xbd006ab1	-0.03135175
116	0x3bc83b3f	0.0061105783
117	0x3d2af8b6	0.041741095
118	0x3d198f69	0.037490282
119	0x3cfad821	0.030620636
120	0xbcb22c6a	-0.021749694
121	0x3d169615	0.036764223
122	0xbd594c80	-0.05305147
123	0x3da492af	0.0803579
124	0xbd6b88f9	-0.057503674
125	0xbdaa274d	-0.08308277
126	0x3ba1886a	0.004929592
127	0xbda83daf	-0.0821489
128	0x3c59312d	0.013256353
129	0xbd8f361e	-0.06992744
130	0xbc19eef2	-0.009395348
131	0xbd101b5c	-0.035182342
132	0x3a9d3ddf	0.0011996588
133	0xbccb5289	-0.02481963
134	0xbd2c67ac	-0.042091057
135	0x3b578466	0.0032885312
136	0xbad31c91	-0.0016106536
137	0x3d899993	0.06718745
138	0xbca3ae3b	-0.01998054
139	0xbd5906e4	-0.052985087
140	0xbd172be3	-0.036907088
141	0xbcf8c44d	-0.030367041
142	0xbd06c827	-0.032905724
143	0xbbdee87c	-0.0068026166
144	0xbaee017a	-0.0018158399
145	0xbb4b6231	-0.0031033868
146	0x3b097655	0.0020975072
147	0xbcbc9e6f	-0.023024766
148	0x3d030430	0.031986415
149	0xba9d487f	-0.0011999755
150	0xbdab0e52	-0.08352341
151	0x3ca9fbe2	0.02074999
152	0xbd42dd24	-0.047574177
153	0xbd575cf9	-0.0525789
154	0x3c7e4e84	0.015521649
155	0x3d05df66	0.032683752
156	0xbd93cc1e	-0.07216667
157	0x3cb12da9	0.021628218
158	0xbcbf44d3	-0.023348248
159	0xbc910c8c	-0.017706178
160	0x3d8df20b	0.06930932
161	0x3d4a7c72	0.049435087
162	0xbc248d15	-0.010043402
163	0xbc4e86f0	-0.012605414
164	0xbd0a6929	-0.033791695
165	0x3cfad57c	0.030619375
166	0xbda80d92	-0.08205713
167	0xbbc45c96	-0.0059924824
168	0xbcd62b9a	-0.026143838
169	0x3d1b58fd	0.037926663
170	0x3ca85b86	0.020551454
171	0xbc3e988a	-0.011633048
172	0x3c7ba6da	0.015359605
173	0x3bcca620	0.0062453896
174	0x3c7f48f6	0.01558136
175	0x3d67f5d8	0.05663094
176	0xbd187d06	-0.037228607
177	0xbd9e7571	-0.07737244
178	0xbc016bc5	-0.007899229
179	0xbcd3fec6	-0.025878321
180	0x3da565e1	0.080760725
181	0xbd19fd3f	-0.03759503
182	0xbda302f8	-0.079595506
183	0xbb4942b7	-0.003070993
184	0x3d87d50d	0.06632433
185	0xbbd0086e	-0.006348661
186	0x3ab89cc2	0.0014084803
187	0x3c6f1d77	0.014594427
188	0xbbe5a3b5	-0.007008041
189	0x3d994e9a	0.07485695
190	0x3d150a0f	0.036386546
191	0x3d40a2a9	0.047030125
192	0xbc765c99	-0.015036725
193	0x3d512b07	0.051066425
194	0xbbd3a0ae	-0.0064583635
195	0x3c2bbd4c	0.010482144
196	0x3c300974	0.010744441
197	0xbbcb088e	-0.006196088
198	0xbd28ad28	-0.04118076
199	0x3c84a41f	0.01619154
200	0xbc1fcff9	-0.009754174
201	0xbd915b3c	-0.0709748
202	0xbb98509d	-0.0046482817
203	0x3ce4bf71	0.027923318
204	0x3bb15624	0.00541188
205	0xbd4e5b39	-0.050379965
206	0xbd8bbfb3	-0.06823673
207	0xbc5d9b06	-0.01352573
208	0x399e3df6	0.00030182273
209	0x3ca06cee	0.019583192
210	0x3c48947b	0.012242432
211	0x3be1f5a2	0.006895737
212	0x3c4331e6	0.011913752
213	0xbc024d29	-0.007952967
214	0xbda100cd	-0.07861481
215	0xbd284ce0	-0.04108894
216	0x3d617c82	0.05505038
217	0x3c1472ee	0.0090606045
218	0xbd2bc162	-0.04193247
219	0xb9ee43ed	-0.00045445506
220	0x3d1ddc42	0.038540132
221	0xbd52cfdd	-0.051467765
222	0xbd459348	-0.04823616
223	0xbda06baa	-0.07833035
224	0xbc7addcd	-0.0153116705
225	0x3c291fd1	0.010322527
226	0x3c5dfca8	0.0135490075
227	0xbd0ce28e	-0.034395747
228	0xbd009ae7	-0.031397726
229	0xbd20c077	-0.03924605
230	0x3be448f9	0.006966707
231	0xbba3a980	-0.004994571
232	0xbd38a26d	-0.045076776
233	0x3d563221	0.0522939
234	0x3cd73010	0.026268035
235	0xbca135fd	-0.019679064
236	0x3a9cc542	0.0011960643
237	0xbbfe5c9a	-0.007762504
238	0x3c85423a	0.01626693
239	0x3deda73e	0.116041645
240	0xbcd24166	-0.02566595
241	0x3c0ccb7b	0.008593435
242	0xbd215697	-0.03938922
243	0xbbb52bf7	-0.0055289227
244	0x3cf9a5e4	0.03047461
245	0xbca538ef	-0.02016875
246	0x3cb124a3	0.021623915
247	0xbd6e2a36	-0.058145724
248	0xba0482c1	-0.0005054884
249	0xbcca52d3	-0.024697697
250	0xbdacfb39	-0.084463544
251	0x3cb33b44	0.021878846
252	0x3be6343e	0.0070252707
253	0xbd073685	-0.03301098
254	0xbc8db14b	-0.017296454
255	0x3cd005e0	0.025393426

batch_norm1.running_mean f4 [1162]
0	0x3e835511	0.25650838
1	0x3e20858c	0.15675944
2	0x3db14006	0.086547896
3	0x3d8d3720	0.0689528
4	0xbe1e7dcb	-0.15477674
5	0xbe64b3f6	-0.22334275
6	0xbe3b4689	-0.18288626
7	0x3d9f4450	0.077767015
8	0xbe0186a6	-0.1264902
9	0x3e34006b	0.17578284
10	0x3dee6d98	0.11641997
11	0x3e585537	0.21126257
12	0xbe3b8173	-0.183111
13	0x3e109ea7	0.14123021
14	0xbdd830cb	-0.105561815
15	0xbdfe36a3	-0.12412765
16	0x3dad6ecb	0.08468398
17	0xbe0a9c78	-0.1353625
18	0xbe1b543b	-0.1516885
19	0x3e301dfa	0.17198935
20	0xbd7b15b9	-0.061300013
21	0xbdca3c1d	-0.09874747
22	0xbe6af33a	-0.22944346
23	0x3ed06805	0.4070436
24	0xbe612623	-0.21987204
25	0x3db37e59	0.08764333
26	0xbded2759	-0.115797706
27	0x3e305767	0.17220841
28	0xbe3c8be4	-0.18412739
29	0xbf2e8e42	-0.6818582
30	0x3f1f699f	0.6227054
31	0x3e2b323c	0.16718382
32	0xbe44dabe	-0.19224069
33	0xbe139d8a	-0.14415565
34	0xbdd66eca	-0.1047035
35	0xbd2dd97c	-0.042443737
36	0xbe062e21	-0.13103534
37	0x3e5441fb	0.20728295
38	0x3d747ab0	0.059687316
39	0x3e8016c7	0.25017378
40	0xbc82b0c7	-0.015953435
41	0xbf2c786f	-0.6737127
42	0x3d172b6a	0.036906637
43	0xbd8f1164	-0.06985739
44	0x3e18c0e3	0.1491733
45	0x3e8a5b15	0.27022615
46	0xbe6c76fa	-0.23092261
47	0xbe1750a7	-0.1477686
48	0xbcc49aec	-0.023999654
49	0xbeefcddf	-0.46836755
50	0xbe67f1d2	-0.22650841
51	0xbcb20dea	-0.02173515
52	0xbe874745	-0.26421562
53	0xbe66d248	-0.22541153
54	0xbed6655a	-0.418742
55	0x3ec1e927	0.37873194
56	0x3cbd39dc	0.023098879
57	0xbf097cce	-0.5370606
58	0x3e4d8e75	0.20073874
59	0x3ebda11c	0.3703698
60	0xbc4dcd08	-0.01256109
61	0xbee6e9b1	-0.45100167
62	0x3eabbe2d	0.3354353
63	0xbf0f3dce	-0.5595368
64	0xbd52cfd8	-0.051467746
65	0xbdadb01c	-0.08480856
66	0x3d9ed147	0.0775476
67	0x3e644368	0.22291338
68	0x3e94a3d1	0.29031232
69	0x3e929b9c	0.28634346
70	0x3d83990b	0.06425675
71	0x3ecf2295	0.40456071
72	0x3d9ab27b	0.07553574
73	0xbbf4b15b	-0.0074674315
74	0x3e69faa0	0.22849512
75	0x3efacf06	0.4898607
76	0x3de42821	0.111404665
77	0x3dcd19fd	0.100147225
78	0x3e79fe3f	0.24413393
79	0xbef2c1b1	-0.474134
80	0x3e42fe5e	0.19042346
81	0xbe9abd93	-0.3022276
82	0x39ed05b8	0.00045208423
83	0x3f2cbb83	0.6747362
84	0x3e1ba39d	0.15199132
85	0x3e6ab355	0.22919972
86	0xbbb4654b	-0.005505239
87	0x3dd36793	0.103224896
88	0x3ec96efb	0.39342484
89	0x3d5582e6	0.052126788
90	0xbde288bf	-0.110612385
91	0xbdb3b62c	-0.08774981
92	0x3e5e895a	0.21732083
93	0xbe0bc65a	-0.13649884
94	0xbf1588ac	-0.5841167
95	0xbd5da91a	-0.054116346
96	0xbc7fe5ef	-0.015618785
97	0x3e3317ef	0.17489599
98	0x3cece6f9	0.02891873
99	0x3e17e3f2	0.14833048
100	0xbdc4786c	-0.09593281
101	0xbed04a07	-0.40681478
102	0x3ee7d5d9	0.4528034
103	0xbe2118cc	-0.15732116
104	0x3e79af90	0.24383378
105	0xbe5db018	-0.21649206
106	0xbc661bdb	-0.014044727
107	0x3e7c6b5b	0.24650328
108	0x3edeabaf	0.4349036
109	0x3e45c3ad	0.19312926
110	0x3db09762	0.08622624
111	0xbe4268e2	-0.18985322
112	0x3e589e83	0.21154217
113	0xbc0f2608	-0.008737095
114	0xbd916b38	-0.071005285
115	0xbdffae40	-0.124844074
116	0x3e495840	0.19662571
117	0x3e4b333f	0.19843768
118	0xbd99088e	-0.07472335
119	0x3e86ac69	0.26303414
120	0x3e99d05e	0.30041784
121	0x3e9d8e90	0.3077283
122	0x3ed40c9f	0.4141588
123	0x3eb23916	0.34809178
124	0x3eae85b9	0.34086397
125	0x3e990d54	0.2989298
126	0x3d2dad07	0.04240134
127	0xbee4f051	-0.44714597
128	0x3da1bfbb	0.07897898
129	0x3eaae6b6	0.33379143
130	0xbe79510d	-0.24347325
131	0x3d1c18b0	0.03810948
132	0x3f028bee	0.50994766
133	0x3e47730a	0.19477478
134	0xbdc0a09e	-0.09405635
135	0xbd9d3ebb	-0.076779805
136	0x3e309c61	0.17247154
137	0x3edd90d9	0.43274572
138	0x3ddb5574	0.10709658
139	0xbe141408	-0.14460766
140	0xbdb2377a	-0.087019876
141	0xbccac563	-0.024752324
142	0xbd4dc31d	-0.050234903
143	0x3ca63615	0.02028946
144	0x3ea4bcc7	0.32175276
145	0x3d951bf1	0.0728072
146	0xbe309c3c	-0.17247099
147	0x3dcf2859	0.101151176
148	0x3e7ee796	0.2489303
149	0x3d0021ad	0.031282116
150	0xbdb3fe28	-0.08788711
151	0x3e765bd2	0.24058464
152	0xbe72444b	-0.23658864
153	0xbdc3ada6	-0.09554605
154	0x3e797df5	0.24364455
155	0x3eae2fd4	0.34020865
156	0x3e700624	0.23439842
157	0xbe7840ce	-0.24243471
158	0xbeedf3b3	-0.4647499
159	0xbeae0631	-0.339891
160	0x3d8db0a4	0.06918457
161	0x3df1261d	0.11774848
162	0xbcbe4861	-0.023227872
163	0x3dfa6ce1	0.12227798
164	0x3e7a98b0	0.24472308
165	0x3e0aba61	0.1354766
166	0xbe85fa89	-0.26167706
167	0xbee9511b	-0.4556969
168	0xbeadb627	-0.33928034
169	0x3e6e4d3b	0.23271649
170	0x3e48555d	0.19563814
171	0xbded9bf4	-0.11602011
172	0x3d922384	0.0713568
173	0x3ec7d75e	0.390315
174	0xbe7952f4	-0.2434805
175	0xbc9a8566	-0.018862437
176	0xbe2e8a1b	-0.1704487
177	0x3e033db6	0.1281651
178	0xbe0465db	-0.1292948
179	0x3d2f3dc5	0.042783517
180	0x3eff8bfd	0.4991149
181	0x3e1aa75e	0.15102908
182	0x3d8d34e8	0.06894857
183	0xbd95c4a0	-0.07312894
184	0x3e4aa484	0.1978932
185	0xbe01bbcf	-0.126693
186	0x3ea75589	0.32682446
187	0x3ce08161	0.027405443
188	0xbc88c0c9	-0.01669349
189	0x3e942741	0.28936198
190	0x3cf52c3d	0.029928321
191	0x3b89fe80	0.004211247
192	0xbe6c6c38	-0.23088157
193	0xbd519bee	-0.051174097
194	0xbcb7af4b	-0.022422453
195	0x3e6af21a	0.22943917
196	0xbdaabde3	-0.08336999
197	0xbf04d48f	-0.5188684
198	0x3e3fc2ee	0.18726704
199	0xbbbe75a5	-0.005812364
200	0xbbc25ab8	-0.0059312247
201	0x3e3a3370	0.18183684
202	0xbe8aa906	-0.2708208
203	0x3e83766b	0.25676283
204	0x3de6957d	0.112589814
205	0xbe872eee	-0.26402992
206	0xbe8248d6	-0.25446194
207	0x3d197f60	0.03747499
208	0xbe6b87d4	-0.23001033
209	0x3e231e7c	0.15929598
210	0x3e53b72a	0.2067534
211	0x3e76507f	0.24054144
212	0x3e64cbcd	0.22343369
213	0xbd4cec1f	-0.05002987
214	0xbd438861	-0.047737483
215	0x3ec03ea3	0.37547788
216	0x3e769ab8	0.24082458
217	0xbed63c38	-0.41842818
218	0x3e832a7a	0.25618345
219	0x3da20a01	0.07912064
220	0x3c20dba8	0.009817995
221	0x3defcacb	0.117086016
222	0x3e23021d	0.15918775
223	0xbd04df8f	-0.032439765
224	0xbf0bb0b5	-0.5456651
225	0xbd86c15d	-0.0657985
226	0x3e8f2105	0.2795488
227	0x3cf10390	0.029420644
228	0x3e9edd84	0.31028378
229	0x3d5cbc4a	0.053890504
230	0x3e27e1fb	0.16394798
231	0x3c0b8f91	0.008518116
232	0x3ea59a79	0.32344416
233	0xbd2f5196	-0.042802416
234	0x3ebc5852	0.36786133
235	0xbe7ee0a3	-0.2489038
236	0xbe3835b3	-0.17989235
237	0xbe065163	-0.13116984
238	0xbdf3ad1a	-0.11898251
239	0xbec02f28	-0.37535977
240	0xbdfea587	-0.124339156
241	0x3dae672c	0.08515772
242	0xbd8c3c58	-0.06847447
243	0xbd0b3b73	-0.033992242
244	0xbde3db42	-0.111258045
245	0xbdd9fbc9	-0.10643727
246	0xbdfa1444	-0.122108966
247	0xbe3f318d	-0.18671246
248	0x3e5fc908	0.21854031
249	0xbdb14afe	-0.08656882
250	0xbcd50353	-0.026002562
251	0x3e30af3c	0.17254347
252	0x3dcfa731	0.10139311
253	0xbe52f294	-0.20600349
254	0xbdc78ff0	-0.09744251
255	0xbe333374	-0.17500097

batch_norm1.running_var f4 [1162]
0	0x3ffa2eb5	1.9545504
1	0x3f7b5005	0.98168975
2	0x3f7a9937	0.9789004
3	0x3f8e9907	1.114045
4	0x3fb599c3	1.4187549
5	0x3fa8a710	1.3175983
6	0x405150ca	3.270556
7	0x3fa591c2	1.2935107
8	0x3fd3b287	1.6538857
9	0x3fcdd2a9	1.6079913
10	0x3fc9c4e7	1.5763215
11	0x3fd5e367	1.6710023
12	0x3fcd1561	1.6022149
13	0x4005c567	2.0901735
14	0x3f9f9076	1.2465961
15	0x3fd03ccb	1.6268553
16	0x3f6c42ae	0.92289245
17	0x3fc01ab5	1.500815
18	0x3fa7ec65	1.3119017
19	0x3f833e65	1.0253416
20	0x3f873708	1.0563669
21	0x3fd71299	1.680255
22	0x3fe5dd66	1.795819
23	0x401de9af	2.467388
24	0x3f5e1a0c	0.86758494
25	0x3fb94456	1.447398
26	0x3fb5a60f	1.4191302
27	0x3fa72297	1.3057431
28	0x4005fc8a	2.0935388
29	0x40a57354	5.170328
30	0x408b9fff	4.363281
31	0x3f787c55	0.97064716
32	0x3fcbb0de	1.591335
33	0x3fc0807c	1.503921
34	0x3f7b89d9	0.98257214
35	0x3f77ad11	0.96748453
36	0x3fa076d2	1.2536261
37	0x3fab03f6	1.3360584
38	0x3f9992b3	1.1997894
39	0x3ffd87a9	1.9807025
40	0x3f6be2c7	0.9214291
41	0x40ac24e8	5.379505
42	0x3f84c720	1.0373268
43	0x3f7a3c09	0.97747856
44	0x3fc3215a	1.5244553
45	0x3fa671f9	1.3003532
46	0x3fc8eb6e	1.5696847
47	0x3fc60d19	1.5472747
48	0x3fafbbc7	1.372918
49	0x406d23ea	3.705317
50	0x4000f7ae	2.0151172
51	0x3f6ef389	0.93340355
52	0x3fb17c22	1.3866007
53	0x403f6d77	2.9910562
54	0x405489b0	3.3209038
55	0x4014988b	2.3218105
56	0x3f58bb6d	0.8466099
57	0x4088d7e9	4.276356
58	0x3fd34de8	1.650815
59	0x3fbe1c6f	1.4852427
60	0x3fa97201	1.3237916
61	0x407ffd41	3.9998324
62	0x40124787	2.2856157
63	0x40ac9931	5.3937
64	0x3f88a8f6	1.0676563
65	0x3f8cb9bd	1.0994183
66	0x3f832109	1.0244457
67	0x3fa12549	1.2589504
68	0x3fe0a8aa	1.7551472
69	0x3fbc1d16	1.4696376
70	0x3f93ac9f	1.1537055
71	0x40245982	2.5679631
72	0x3f810189	1.0078593
73	0x3f60c0a6	0.8779396
74	0x3ffcdc61	1.9754754
75	0x4077dfdd	3.8730385
76	0x3fb7d2a1	1.4361154
77	0x3f942fe8	1.157712
78	0x3feede81	1.8661653
79	0x403263f3	2.7873504
80	0x3fc7e784	1.5617528
81	0x4009a415	2.1506398
82	0x3f4b7a20	0.7948322
83	0x40a36b07	5.106815
84	0x3f7862f5	0.97025996
85	0x4014509c	2.31742
86	0x3fa2d1e8	1.2720308
87	0x3fa37f66	1.2773254
88	0x4029285b	2.643088
89	0x3fdf22de	1.7432516
90	0x3fa69715	1.3014857
91	0x3f7d6160	0.9897671
92	0x3f9c85ab	1.2228292
93	0x3f9756f9	1.1823417
94	0x40660410	3.593998
95	0x3fb4d359	1.4126998
96	0x3f8cd430	1.1002254
97	0x3fb80a59	1.4378158
98	0x3fbd9046	1.4809654
99	0x3f909410	1.1295185
100	0x3f720059	0.9453178
101	0x4036592d	2.8491929
102	0x405a835e	3.414268
103	0x3fac2c36	1.3450992
104	0x3fff6ba6	1.9954727
105	0x40392d17	2.893377
106	0x3f857190	1.0425282
107	0x40101bd7	2.2516992
108	0x408bd8a3	4.370195
109	0x3f9dfc22	1.234257
110	0x401377f4	2.3041964
111	0x3fe57cbf	1.7928694
112	0x3f9c7d64	1.2225766
113	0x3fa39fc3	1.278313
114	0x3f9ea748	1.23948
115	0x3fe3605f	1.7763785
116	0x3fe08fab	1.7543844
117	0x3fac229e	1.3448064
118	0x3f836a1c	1.0266757
119	0x4004c4b7	2.0745065
120	0x3fb20462	1.3907588
121	0x4012db0f	2.2946203
122	0x3fd87660	1.6911125
123	0x401b95f6	2.431028
124	0x4030c64f	2.7621038
125	0x3ff5cb96	1.9202754
126	0x3f6bc7ff	0.92102045
127	0x40342566	2.8147826
128	0x3f9b9fea	1.2158177
129	0x4000fe91	2.0155375
130	0x3ff5d865	1.9206663
131	0x4003da1f	2.060188
132	0x40813f2e	4.0389624
133	0x3f7d3aaf	0.9891767
134	0x403e3bd8	2.9724026
135	0x3fef7671	1.870802
136	0x3fcf5650	1.6198215
137	0x402dddb4	2.7166567
138	0x3feef6d5	1.8669077
139	0x3f816189	1.010789
140	0x3fdd1403	1.7271732
141	0x3fdf93ee	1.746702
142	0x3fad7876	1.3552387
143	0x3f8b0a7f	1.0862578
144	0x4026fb80	2.6091003
145	0x3f47a937	0.77992576
146	0x3fa86a0c	1.3157363
147	0x3fabcaab	1.3421224
148	0x3fd108f6	1.633086
149	0x4043a2a9	3.056803
150	0x3fa820b2	1.3134978
151	0x3fd70858	1.6799421
152	0x4095b005	4.6777368
153	0x3f58e82a	0.84729254
154	0x3fa7e4a3	1.3116649
155	0x401a0121	2.406319
156	0x3fb81d78	1.4383993
157	0x4012543e	2.2863917
158	0x405475f8	3.3197002
159	0x4001ce69	2.0282233
160	0x3f901b84	1.1258397
161	0x3f8ffbd6	1.1248729
162	0x4036617d	2.8497002
163	0x3fbf1cd9	1.4930679
164	0x400f5b8c	2.2399626
165	0x3f726c65	0.94696647
166	0x3faf4232	1.3692076
167	0x404f6d41	3.2410433
168	0x3fe03731	1.7516843
169	0x3fd9538c	1.6978621
170	0x3fc16fc0	1.5112228
171	0x3f8939da	1.072078
172	0x3f8354e5	1.0260283
173	0x403817b6	2.8764472
174	0x404111b9	3.0167067
175	0x3fbb63c2	1.4639819
176	0x3fbef96e	1.491987
177	0x3f5cfa88	0.8631978
178	0x40055763	2.0834587
179	0x3fa13b42	1.2596209
180	0x404d4804	3.2075205
181	0x3f8ae3b9	1.0850745
182	0x3fa4c3d2	1.287226
183	0x3f88c96d	1.068647
184	0x3f9e4400	1.2364502
185	0x3f9c247d	1.2198635
186	0x402939f0	2.6441612
187	0x3f6c93da	0.92413104
188	0x3fdcfa35	1.7263857
189	0x3fd098f8	1.6296682
190	0x3f89e238	1.0772161
191	0x3f9b3564	1.2125669
192	0x3f8da27e	1.1065214
193	0x3fc2dffb	1.5224603
194	0x3f800838	1.0002508
195	0x40117188	2.2725544
196	0x3f6e88f9	0.93177754
197	0x4098b1b3	4.771692
198	0x3fed305c	1.8530383
199	0x3f98a735	1.1926028
200	0x4056c8ec	3.3560133
201	0x3fb753af	1.4322413
202	0x3fcb0370	1.5860424
203	0x40014f9d	2.0204842
204	0x3f650f15	0.8947614
205	0x3f984d44	1.189858
206	0x3fbb709d	1.4643742
207	0x3f5f6304	0.8726046
208	0x3fe80ee1	1.8129541
209	0x3f9d60b9	1.2295142
210	0x401618d8	2.3452663
211	0x3f9b796d	1.2146431
212	0x3ffb04aa	1.9610798
213	0x3f91e00d	1.13965
214	0x3fa48d6e	1.2855661
215	0x40591fe1	3.3925707
216	0x3fc275c9	1.5192195
217	0x404aa3fb	3.1662586
218	0x400fd15a	2.2471528
219	0x3fc7cbb2	1.5609038
220	0x3f90f575	1.1324908
221	0x3fee11d2	1.8599188
222	0x3fa9da58	1.3269758
223	0x3f6fb037	0.9362826
224	0x40722015	3.7832081
225	0x3f90860a	1.1290905
226	0x3ff68eed	1.9262367
227	0x3f77a954	0.9674275
228	0x4029b707	2.651796
229	0x3f6a637b	0.91558045
230	0x3facfe02	1.3515017
231	0x3f83f22e	1.0308282
232	0x3ffc6a66	1.971997
233	0x3f9fafdb	1.2475542
234	0x4038aa36	2.8853889
235	0x4011b095	2.2764027
236	0x3ff7d926	1.9363143
237	0x3f6d6b34	0.92741704
238	0x3f9c21f8	1.2197866
239	0x3fef9b4c	1.8719268
240	0x3f7aec57	0.98016876
241	0x3f57a35f	0.8423366
242	0x3f894755	1.0724894
243	0x3fdbe509	1.7179271
244	0x3f9f7415	1.24573
245	0x3f6fc1b8	0.93654966
246	0x3f98279a	1.1887085
247	0x3f961c54	1.1727395
248	0x3f823e58	1.0175276
249	0x3f974ad7	1.1819714
250	0x3f84a284	1.0362096
251	0x3fb01e60	1.375927
252	0x3fc51297	1.5396298
253	0x402c57a3	2.692849
254	0x3f94791f	1.1599463
255	0x3fe18ec0	1.7621689

dense1.weight f4 [128, 1162]
0	0x3d1fa345	0.038974065
1	0x3d3ca95b	0.046059947
2	0xbd965784	-0.07340911
3	0xbd0a6481	-0.033787254
4	0x3c7d725c	0.01546916
5	0xbd11af85	-0.03556778
6	0x3b9b7ef9	0.004745361
7	0x3cc6d336	0.024270635
8	0x3d096d7a	0.03355167
9	0x3d8883f6	0.066657946
10	0xbd3c8bc2	-0.04603172
11	0xbd9db776	-0.07701008
12	0x3d25997d	0.04042958
13	0xbcf0c778	-0.02939199
14	0xbcbf7085	-0.023369083
15	0xbcfc5ab0	-0.030804962
16	0x3bc9eeaf	0.0061624865
17	0xbbb38ea2	-0.0054796496
18	0x3b23285f	0.002489589
19	0xbd9f6b36	-0.07784121
20	0xbd00d050	-0.031448662
21	0x3d6b19e9	0.057397757
22	0xbb44e2fb	-0.0030042517
23	0x3cfba1af	0.030716745
24	0x3bc191d2	0.0059072757
25	0xbd4f41ea	-0.05059997
26	0x3a8841ac	0.0010395548
27	0xbd0a7719	-0.033804987
28	0x3b92f60c	0.0044848975
29	0x3cbcbc85	0.023039112
30	0xbb9f9db2	-0.0048710937
31	0x3da95572	0.082682505
32	0xbd08229f	-0.033236142
33	0xbc8a1476	-0.01685546
34	0xbd5ec481	-0.05438662
35	0x3bbea257	0.0058176923
36	0xbcf36c68	-0.029714778
37	0xbc6e88a9	-0.0145589495
38	0xbcd6b853	-0.02621094
39	0xbd23632d	-0.039889503
40	0x3cb6b9e4	0.022305436
41	0x3cdce99a	0.026966859
42	0xbcb97d13	-0.022642648
43	0xbc40555b	-0.0117391
44	0xbd98da54	-0.07463518
45	0xbd1a5f0a	-0.037688293
46	0x3d1bcfa3	0.038039815
47	0x3d19a8fe	0.03751468
48	0xbd98bf3a	-0.074583486
49	0xbc61da1d	-0.013784912
50	0x3cee0e89	0.029059665
51	0x3d90fe4f	0.070797555
52	0x3d1ce97e	0.038308613
53	0x3cb02eef	0.021506755
54	0x3cfa8761	0.030582132
55	0xbc8c19bd	-0.017102117
56	0x3d18e8a3	0.037331235
57	0xbc8f0e15	-0.01746277
58	0x3ca9c1c2	0.020722274
59	0xbd0f9fcb	-0.0350645
60	0x3d33b0b4	0.04386969
61	0x3d56b659	0.052419994
62	0xbcead251	-0.02866474
63	0x3ca709bf	0.02039039
64	0x3dc7110e	0.0972005
65	0xbc30b556	-0.010785421
66	0x3d763d07	0.060116794
67	0x3d1188dd	0.035530914
68	0xbd47f23a	-0.04881499
69	0x3cad3758	0.021144554
70	0xbd3fb30a	-0.046801604
71	0xbd15489e	-0.036446206
72	0x3c7a9b93	0.015295881
73	0x3d59a59e	0.05313646
74	0x3d8fd571	0.070231326
75	0xbd63781d	-0.05553447
76	0xbaa43aef	-0.0012529771
77	0x3cdbc8e8	0.026829198
78	0xbca3c6fc	-0.019992344
79	0xbd27e345	-0.040988225
80	0xbd1ea81d	-0.038734544
81	0x3b6dd75d	0.0036291697
82	0xbd5a4a01	-0.053293232
83	0xbd224479	-0.039616082
84	0xbcfe257e	-0.031023737
85	0xbc202d9e	-0.009776501
86	0x3d428b52	0.047496147
87	0xbb8af5f1	-0.0042407443
88	0xbd1cf68b	-0.03832106
89	0xbd806e10	-0.06270993
90	0x3b97f991	0.004637905
91	0xbbc4bc9a	-0.0060039284
92	0x3b0dd5ca	0.002164232
93	0x3cd73ded	0.026274646
94	0xbc9523db	-0.018205574
95	0xbca8caec	-0.020604573
96	0xbd1c3dee	-0.038145
97	0xbb98b7c5	-0.004660579
98	0xbd2b1022	-0.041763432
99	0x3c1f8b73	0.009737837
100	0x3c32cd8a	0.010913262
101	0x3d19d6d6	0.0375584
102	0xbd3f6a18	-0.04673204
103	0x3c13095c	0.008974399
104	0xbde1cb66	-0.11025123
105	0x3c35fcf3	0.011107671
106	0x3c266744	0.010156456
107	0x3c6878f7	0.0141889965
108	0xbcb0169f	-0.021495162
109	0x3daeb67c	0.085309
110	0xbd1c8b19	-0.03821859
111	0x3ddb34ab	0.10703405
112	0x39b5f43a	0.00034704973
113	0x3c9f35a3	0.019434756
114	0x3b0c712b	0.0021429758
115	0xbccc1365	-0.024911592
116	0xbd6c7031	-0.05772418
117	0xbc985997	-0.018597407
118	0xbd39d0f3	-0.045365285
119	0xbd1545a5	-0.03644337
120	0xbcad7f47	-0.021178855
121	0xbdb5a3c7	-0.08869129
122	0x3b9e66d4	0.0048340354
123	0xbb7b9a4f	-0.0038391536
124	0xbd2718aa	-0.040795006
125	0xbd51a037	-0.051178183
126	0xbd4b8b8f	-0.04969364
127	0x3c662be7	0.014048553
128	0xbca07a1d	-0.019589478
129	0xbd6aeeb0	-0.057356536
130	0xbd2c6cad	-0.04209583
131	0xbda1e0d1	-0.079042085
132	0xbc1fdba4	-0.009756956
133	0xbd439586	-0.04775002
134	0x3d5fb6d1	0.054617707
135	0xbcb6f42d	-0.022333229
136	0x3c2f4130	0.010696694
137	0xbd5e2f6f	-0.054244455
138	0xbc7bbf5a	-0.015365446
139	0x3d41e765	0.047339816
140	0x3ce0c467	0.027437402
141	0xbc1320b1	-0.008979962
142	0x3cd57371	0.026056023
143	0x3be229e4	0.0069019664
144	0xbda05924	-0.07829502
145	0xbd631507	-0.055439975
146	0x3d194dcd	0.037427712
147	0xbcf7aaf3	-0.030232882
148	0x3d0a4386	0.0337558
149	0x3d83f300	0.06442833
150	0xbd1a9532	-0.03773994
151	0xbd887e0c	-0.066646665
152	0xbd308802	-0.043098457
153	0x3d8013da	0.062537864
154	0x3d13dfa8	0.036101967
155	0xbdbb4daf	-0.09145676
156	0xbd939978	-0.07207006
157	0xbd40a5d9	-0.047033165
158	0x3b4b9748	0.0031065512
159	0xbcf6de1d	-0.030135209
160	0xbd0485d6	-0.0323542
161	0x3b9f3755	0.004858891
162	0x3d063eec	0.03277485
163	0xbd21fa74	-0.03954549
164	0x3ca16c96	0.019705098
165	0xbd76f737	-0.060294356
166	0xbd4fa659	-0.05069575
167	0x3d41e622	0.047338612
168	0xbcbb2426	-0.022844385
169	0xbd834ff1	-0.06411732
170	0x3cf0a9be	0.029377814
171	0x395ee554	0.00021257001
172	0x3d9d9dd9	0.07696123
173	0x3b07c6a1	0.0020717757
174	0xbd3f337f	-0.04667997
175	0x3d959273	0.073033236
176	0xbcbc6d43	-0.023001319
177	0xbd4df61a	-0.05028353
178	0x3d90ac14	0.07064071
179	0x3d289b37	0.04116365
180	0xbd643456	-0.055713974
181	0xbd89dcac	-0.06731543
182	0x3d40799e	0.046990983
183	0xbba8d71c	-0.005152596
184	0xbbcecd26	-0.0063110767
185	0x3ca3b82c	0.01998528
186	0xbd632ec6	-0.05546453
187	0xb9f09819	-0.0004588969
188	0xbcaf2288	-0.02137877
189	0xbcf83239	-0.030297386
190	0xbb178c6c	-0.002312447
191	0x3c9b11a5	0.018929312
192	0xbd394a99	-0.045237157
193	0x3cdee1b0	0.027207226
194	0x3c841ae6	0.016126107
195	0xbd02a939	-0.031899665
196	0xbd5413e5	-0.051776785
197	0x3d9c04cf	0.07618105
198	0x3c414f99	0.011798763
199	0x3c5b6138	0.013389878
200	0x3cf65145	0.03006805
201	0x3c51f9b7	0.012815884
202	0xbcc2c82b	-0.023777088
203	0x3cae4e89	0.021277683
204	0x3d465300	0.048419
205	0x3d602c2e	0.054729633
206	0xbcc6b5a9	-0.024256544
207	0xbc09186b	-0.008367638
208	0xbca16a95	-0.019704143
209	0xbcae20aa	-0.02125581
210	0xbd1c30b3	-0.03813238
211	0xbcdc69cf	-0.026905922
212	0xbd792d04	-0.060833946
213	0x3c8d4bc7	0.017248048
214	0xbc933391	-0.017968925
215	0xbd6d0bb9	-0.057872508
216	0xbd3157cf	-0.04329663
217	0xbd367a3f	-0.044550177
218	0xbb92e57e	-0.004482924
219	0xbde0bda1	-0.10973669
220	0xbc1c462b	-0.009538214
221	0x3d60a0f3	0.054840993
222	0xbd2af008	-0.041732818
223	0x3bfee12f	0.007778309
224	0x3c151c33	0.0091009615
225	0x3d35fd33	0.044430923
226	0xbd205c37	-0.039150443
227	0xbc9f66fc	-0.019458286
228	0x3c634646	0.013871735
229	0x3d40cf6c	0.047072813
230	0xbca9c7ca	-0.02072515
231	0x3cc48bbb	0.02399241
232	0x3d665dc7	0.056241777
233	0xbd1574d1	-0.036488358
234	0x3d3edfbf	0.0466001
235	0xbc6d7658	-0.014493547
236	0x3d26c7c8	0.04071787
237	0xbc9a8540	-0.018862367
238	0xbd1a6b55	-0.037700016
239	0xbc8548c3	-0.016270047
240	0x3bf5e22b	0.007503768
241	0x3d6c8d78	0.057752103
242	0x3c5916ff	0.013250112
243	0x3c554e04	0.013019089
244	0x3adebca1	0.0016993472
245	0x3cd5e72f	0.026111213
246	0x3d37cec2	0.044874914
247	0xbc532c5e	-0.012888996
248	0x3de4b202	0.11166765
249	0x3d3052a0	0.043047547
250	0xbc893fdd	-0.016754085
251	0xb907552c	-0.00012906332
252	0x3decb4f3	0.11557951
253	0x3c8d123e	0.017220613
254	0xbc2bd898	-0.010488652
255	0xbcfda83d	-0.030964011

dense1.bias f4 [128]
0	0xbc90b6e4	-0.017665334
1	0xbccccdb4	-0.02500043
2	0xbc99cf75	-0.018775681
3	0xba8b68fc	-0.0010636146
4	0xbd9755b6	-0.07389395
5	0x3b52f2c3	0.0032188154
6	0x3ccf7b21	0.025327267
7	0x3d1d286e	0.038368635
8	0xbd026783	-0.031836998
9	0x3ca1c0b6	0.019745212
10	0x3c608e7e	0.013705848
11	0x3cff61e6	0.031174611
12	0xbce63d5d	-0.028105432
13	0xbc8281f7	-0.015931113
14	0x3cf62735	0.030047992
15	0x3d38371f	0.044974443
16	0x3c4659f4	0.012106407
17	0x3d6d09a8	0.057870537
18	0x3d4ad9ce	0.04952412
19	0x3cf1c89c	0.029514603
20	0xbd04384d	-0.032280255
21	0xba035a54	-0.00050107134
22	0xbd2870f8	-0.04112336
23	0xbd242c5e	-0.040081374
24	0xba1f79cc	-0.0006083518
25	0x3d5a4805	0.05329134
26	0xbc80bb7b	-0.015714398
27	0xbaa84c92	-0.0012840203
28	0xbd24bc07	-0.04021838
29	0xbd58897d	-0.052865494
30	0xbcb27a3e	-0.021786805
31	0x3cdac181	0.026703598
32	0xbd6925ce	-0.05692082
33	0xbd60da89	-0.05489591
34	0x3cb2d64e	0.021830704
35	0xbc97b435	-0.018518547
36	0x3c125b47	0.008932895
37	0xbba74044	-0.0051040966
38	0x3daaa33b	0.08331915
39	0xbc5e0b1d	-0.013552454
40	0xbc9c395d	-0.019070322
41	0x3ccf8496	0.025331777
42	0x3b20a917	0.0024514848
43	0xbd8083bd	-0.06275127
44	0xbab9eeba	-0.0014185526
45	0x3bedcd0b	0.007257109
46	0x3c3c39a8	0.011488356
47	0x3d21b0cd	0.03947525
48	0xbc5b4252	-0.013382511
49	0x3d7f7eba	0.062376715
50	0x3c2403a9	0.010010638
51	0xbcf5f62a	-0.030024607
52	0xbcd35fe5	-0.025802562
53	0xbd35b35a	-0.044360496
54	0x3c743037	0.014904073
55	0x3bee27be	0.007267921
56	0xbd1fc8c9	-0.039009843
57	0x3bae8dc9	0.0053269607
58	0xbd619954	-0.055077866
59	0x3dc5cd81	0.096583374
60	0xbd4dd8d3	-0.050255608
61	0xbc98171b	-0.018565705
62	0xbd5cae10	-0.053876936
63	0xbd0fdaaa	-0.035120644
64	0x3d0d7c9c	0.034542665
65	0x3d864e69	0.06557924
66	0x3b8ba3f3	0.0042614876
67	0xbd1cde75	-0.03829809
68	0x3bc3a25e	0.0059702834
69	0xbd577dc4	-0.052610174
70	0xbae440e8	-0.0017414363
71	0x3c2152ac	0.009846371
72	0xbc9e5f9e	-0.019332703
73	0x3cd90124	0.026489802
74	0x3c51a900	0.01279664
75	0x3baa7e5d	0.005203052
76	0xbce335df	-0.027735649
77	0x3c63f385	0.01391304
78	0xbc5c0a26	-0.013430154
79	0xbc66d231	-0.0140881995
80	0x3d8de787	0.06928926
81	0xbc838fb4	-0.016059734
82	0xbc9163e1	-0.017747821
83	0xbcb1b48c	-0.021692537
84	0x3cb3c28d	0.021943355
85	0xbaae5132	-0.0013299345
86	0xbcdafc74	-0.026731707
87	0xbccac521	-0.024752202
88	0x3c26a2f1	0.010170684
89	0xbbbd0cf9	-0.0057693687
90	0xbb078d72	-0.0020683673
91	0x3d2baf4f	0.041915234
92	0xbb854c0d	-0.004067904
93	0x3a2f3830	0.0006684093
94	0xbc2e8981	-0.010652901
95	0x3d82cb80	0.06386471
96	0x3d0b836d	0.034060884
97	0xbccdc8f8	-0.025120243
98	0x3cab852e	0.020937528
99	0x3c916443	0.017748004
100	0xbc941166	-0.018074702
101	0x3ccbc4d6	0.024874132
102	0x3c32f3ad	0.010922355
103	0x3c25b5e7	0.01011417
104	0xbca2afa8	-0.01985915
105	0xbd20089c	-0.03907071
106	0xbd4065a1	-0.04697192
107	0xbcc5e996	-0.024159234
108	0xbd19e3b1	-0.03757066
109	0xbd10114e	-0.035172753
110	0x39deb2de	0.00042476406
111	0xbd83c1be	-0.06433438
112	0x3a9360f1	0.0011244101
113	0x3c3696ae	0.011144323
114	0xbd45c023	-0.04827894
115	0x3d80f03b	0.0629582
116	0xbbbab323	-0.0056976243
117	0xbb9f7b80	-0.0048670173
118	0xbdb98564	-0.09058645
119	0xbc524f67	-0.012836314
120	0xb88b1782	-6.632415e-05
121	0xbcc84938	-0.024448976
122	0xbbdb6d2d	-0.0066963644
123	0x3d76b65d	0.06023251
124	0x3cbec001	0.023284914
125	0x3b8a6c75	0.004224355
126	0x3d04e7e6	0.032447718
127	0x3cbcb7d4	0.023036875

batch_norm2.weight f4 [128]
0	0x3f823cbd	1.0174786
1	0x3f71def9	0.94480854
2	0x3f8504d9	1.0392104
3	0x3f574e8d	0.84104234
4	0x3f83ade4	1.0287442
5	0x3f6cf25f	0.9255733
6	0x3f82ed8d	1.0228745
7	0x3f80440a	1.0020764
8	0x3f852ffd	1.040527
9	0x3f89152f	1.070959
10	0x3f77dffa	0.96826136
11	0x3f6dfb89	0.9296194
12	0x3f754901	0.9581452
13	0x3f7878a9	0.9705911
14	0x3f829fdb	1.0205034
15	0x3f688b79	0.9083782
16	0x3f73483c	0.95032096
17	0x3f8b01b6	1.0859897
18	0x3f6a7c88	0.9159627
19	0x3f7e7d5a	0.9941002
20	0x3f7bcab8	0.983562
21	0x3f919969	1.1374942
22	0x3f6af54e	0.91780555
23	0x3f69471b	0.91124123
24	0x3f8e6ec9	1.1127559
25	0x3f7704fb	0.96491975
26	0x3f861972	1.0476515
27	0x3f8003be	1.0001142
28	0x3f8430d7	1.0327405
29	0x3f6ce660	0.92539024
30	0x3f751c83	0.9574663
31	0x3f733aff	0.95011896
32	0x3f7eee7e	0.9958266
33	0x3f817f1d	1.0116917
34	0x3f808cb6	1.0042942
35	0x3f6319f8	0.887115
36	0x3f78da09	0.97207695
37	0x3f6e63ee	0.9312123
38	0x3f79c759	0.97569805
39	0x3f763f45	0.9619029
40	0x3f6cd15c	0.9250696
41	0x3f7ef0e4	0.9958632
42	0x3f835aa6	1.0262039
43	0x3f807a38	1.0037298
44	0x3f80ce24	1.0062909
45	0x3f73c145	0.9521678
46	0x3f8376ac	1.0270591
47	0x3f831bfd	1.0242916
48	0x3f834cca	1.0257809
49	0x3f8141b1	1.0098172
50	0x3f792423	0.97320765
51	0x3f7c3f29	0.98533875
52	0x3f7c0fcc	0.98461604
53	0x3f7d5664	0.98959947
54	0x3f8370f7	1.0268849
55	0x3f743f64	0.95409226
56	0x3f88e7f1	1.0695783
57	0x3f7381e9	0.951201
58	0x3f7c37ff	0.98522943
59	0x3f6e4f34	0.93089604
60	0x3f69acbe	0.9127921
61	0x3f80a201	1.004944
62	0x3f7e8c25	0.99432594
63	0x3f656a19	0.8961502
64	0x3f6f87f7	0.9356684
65	0x3f86e8ae	1.0539758
66	0x3f697b9f	0.91204256
67	0x3f8066bc	1.0031352
68	0x3f80802e	1.0039117
69	0x3f759cd6	0.9594244
70	0x3f78c727	0.9717888
71	0x3f858ded	1.0433937
72	0x3f85fda3	1.0468029
73	0x3f7c1365	0.98467094
74	0x3f6c1c72	0.92230904
75	0x3f800afb	1.0003351
76	0x3f71abfe	0.94403064
77	0x3f8002ea	1.0000889
78	0x3f836d0d	1.0267655
79	0x3f6cba59	0.92471844
80	0x3f6bb8eb	0.9207904
81	0x3f70db0e	0.9408425
82	0x3f6f8ad5	0.93571216
83	0x3f815c27	1.0106248
84	0x3f6a6136	0.9155458
85	0x3f78d8a2	0.97205555
86	0x3f705b68	0.93889475
87	0x3f81a153	1.0127357
88	0x3f8273bd	1.019157
89	0x3f839daf	1.0282496
90	0x3f82e100	1.0224915
91	0x3f878f4e	1.0590608
92	0x3f84a267	1.0362061
93	0x3f767429	0.96270996
94	0x3f80c725	1.0060774
95	0x3f8517c4	1.0397878
96	0x3f6bf462	0.92169774
97	0x3f80dd05	1.006745
98	0x3f8189a6	1.0120132
99	0x3f740106	0.9531406
100	0x3f7a4b48	0.9777112
101	0x3f6c2b19	0.9225326
102	0x3f822f7b	1.017074
103	0x3f7375ad	0.95101434
104	0x3f576a47	0.8414654
105	0x3f8c4b43	1.0960468
106	0x3f837e9d	1.0273014
107	0x3f6c858a	0.92391264
108	0x3f6154bf	0.8801994
109	0x3f7710d9	0.9651008
110	0x3f7af00b	0.98022527
111	0x3f867bcc	1.050653
112	0x3f8861e1	1.065487
113	0x3f72de53	0.9487049
114	0x3f769932	0.9632751
115	0x3f833ecc	1.0253539
116	0x3f824675	1.0177752
117	0x3f789964	0.97109056
118	0x3f631dd5	0.88717395
119	0x3f7f06cf	0.99619764
120	0x3f7fd6f5	0.99937373
121	0x3f847da4	1.0350842
122	0x3f6612f8	0.89872694
123	0x3f7b2aad	0.98111993
124	0x3f5b4b65	0.8566192
125	0x3f88ce0d	1.0687882
126	0x3f6e3f26	0.93065107
127	0x3f809cc1	1.0047837

batch_norm2.bias f4 [128]
0	0xbe05127a	-0.1299533
1	0x3d0f9edd	0.035063613
2	0x3d18cbe3	0.037303817
3	0x3d13b8fe	0.036065094
4	0x3d2f37cb	0.042777818
5	0xbd56266d	-0.05228274
6	0x3df7d60a	0.121013716
7	0x3c22a341	0.009926618
8	0xbd41e549	-0.047337804
9	0xbd8a62cb	-0.067571245
10	0xbcdaa2ae	-0.0266889
11	0x3c166dc0	0.00918144
12	0x3b2523e9	0.0025198406
13	0x3cedf7e2	0.029048864
14	0x3d33a625	0.04385962
15	0xbc7d7d39	-0.01547175
16	0xbd41323f	-0.04716706
17	0xbd262956	-0.040566765
18	0xbe0907bf	-0.13381861
19	0xbcbaf64e	-0.022822525
20	0xbd4c4fd7	-0.04988083
21	0x3c9b30f5	0.018944243
22	0x3d026c44	0.03184153
23	0x3a54b690	0.0008114362
24	0x3d39d102	0.04536534
25	0xbd6b93df	-0.057514068
26	0xbbcb6a17	-0.0062077153
27	0x3c5971ab	0.013271729
28	0xbd80bc28	-0.06285888
29	0x3d03c40e	0.032169394
30	0xbdc70817	-0.0971834
31	0xbc501b80	-0.012701869
32	0x3cda1373	0.026620602
33	0x3d930450	0.07178557
34	0x3dcd4ee0	0.1002481
35	0x39ee7b32	0.00045486685
36	0xbca2bdd8	-0.019865915
37	0xbbc7875e	-0.006089135
38	0x3d4633b7	0.048389163
39	0xbd16286d	-0.036659647
40	0x3dd08f13	0.10183539
41	0x3de3e963	0.11128499
42	0xbd39723e	-0.045274965
43	0xbb353d08	-0.0027654786
44	0x3dd1c2d3	0.10242238
45	0xbc833a9e	-0.016019162
46	0xbce02cdd	-0.027365142
47	0xbda0e7f9	-0.07856745
48	0xbd29ed2c	-0.04148595
49	0xbd828001	-0.06372071
50	0xbd936d53	-0.07198586
51	0xbd12ad12	-0.035809584
52	0xbd23807f	-0.039917465
53	0xbcd6948e	-0.026193883
54	0xbd153c3a	-0.03643439
55	0x3ce57fc2	0.028015021
56	0xbcc2cdd3	-0.023779785
57	0x3daaadfd	0.08333967
58	0x3d323ed5	0.043516953
59	0x3e1f44b4	0.15553552
60	0x3d84d120	0.064852
61	0x3d27524c	0.04084997
62	0xbd189f8f	-0.037261542
63	0x3b532d08	0.0032222886
64	0xbc51cd30	-0.012805268
65	0x3c0978e3	0.008390638
66	0xbd70998b	-0.05874018
67	0xbd1b29c0	-0.037881613
68	0xbd1ba156	-0.03799566
69	0xbc5372fc	-0.012905832
70	0xbddd7c49	-0.10814721
71	0x3b95502f	0.004556678
72	0xbd019814	-0.031639174
73	0x3d6f520a	0.058427848
74	0xbd0c83b5	-0.034305293
75	0xbd869139	-0.06570668
76	0xbd534089	-0.051575217
77	0xbb4142e4	-0.0029489333
78	0x3c47e51b	0.012200619
79	0xbd4549bb	-0.048166018
80	0xbd2c7350	-0.042102158
81	0xbd5dcb01	-0.054148678
82	0x3ad7f6c8	0.0016476745
83	0x3b1ba4aa	0.002374927
84	0x3d841db5	0.06450979
85	0x3d23cf17	0.03999242
86	0xbdc1fe27	-0.09472304
87	0x3da3f607	0.0800591
88	0x3d18265d	0.03714596
89	0xbbb4bfa5	-0.00551601
90	0xbd5e34ff	-0.05424976
91	0x3c722401	0.014779092
92	0x3d4b61a5	0.049653668
93	0x3bd2a840	0.0064287484
94	0xbcadc887	-0.021213783
95	0x3d419fe9	0.047271643
96	0x3d8331bc	0.064059705
97	0xbd06a164	-0.032868758
98	0x3c6cd0d0	0.014454082
99	0xbc1b92d9	-0.00949546
100	0xbdc22a40	-0.09480715
101	0x3ded27e2	0.11579873
102	0xbc5ba728	-0.013406552
103	0xbd900e25	-0.07033948
104	0x3d2021dd	0.039094795
105	0x3db194b8	0.08670944
106	0xbdd88a8f	-0.10573303
107	0x3add4fa4	0.0016884697
108	0x3d5f5152	0.054520912
109	0xbcb70bd0	-0.0223445
110	0x3d2c1a48	0.04201725
111	0x3b9a5d7a	0.0047108503
112	0xbd97d6b6	-0.07414
113	0x3c9c73bb	0.019098153
114	0xbd959263	-0.07303312
115	0x3d453029	0.048141632
116	0xbc83e806	-0.016101848
117	0xbcca811d	-0.02471977
118	0x3d09f78c	0.033683345
119	0xbc91cfc9	-0.017799275
120	0xbdb2676d	-0.08711133
121	0xbdefd95e	-0.117113814
122	0x3dc376f3	0.09544172
123	0xbd66a5f5	-0.056310613
124	0x3d422df8	0.04740712
125	0x3c0f6579	0.00875222
126	0x3d9035a9	0.07041485
127	0x3d00a2e7	0.031405356

batch_norm2.running_mean f4 [128]
0	0x3ff934b1	1.9469205
1	0x401483b3	2.3205383
2	0x3fd513aa	1.6646626
3	0x3fb0f130	1.3823605
4	0x3f41ee4d	0.75754243
5	0x3f9264b5	1.1436983
6	0x4026b72b	2.6049297
7	0x401b41f8	2.4259014
8	0x400433c3	2.0656593
9	0x3fccd921	1.6003762
10	0x3fd83916	1.6892421
11	0x3fd290a5	1.6450392
12	0x3f9eec14	1.2415795
13	0x4021b356	2.5265708
14	0x40135486	2.302034
15	0x40117b66	2.2731566
16	0x4020d07d	2.512725
17	0x405f148b	3.4856288
18	0x3fa75033	1.307135
19	0x3fb5c897	1.420184
20	0x3fc68b35	1.5511233
21	0x3fad40c7	1.3535393
22	0x3fa5ca93	1.2952446
23	0x4005b592	2.0892072
24	0x4005d4ed	2.091121
25	0x4019496e	2.3951068
26	0x4005d67e	2.0912166
27	0x3fb74b42	1.4319842
28	0x40138465	2.3049557
29	0x3f64f649	0.894383
30	0x3f81816c	1.0117621
31	0x3fec83d4	1.8477731
32	0x3ffb0ef5	1.961394
33	0x401c6ce5	2.4441464
34	0x400fdb70	2.2477684
35	0x3fa7b721	1.3102762
36	0x403e283e	2.9712062
37	0x3fa68193	1.3008293
38	0x401572e6	2.3351378
39	0x3fb13504	1.3844304
40	0x40211d12	2.5173993
41	0x3f62cc16	0.8859266
42	0x4000db7b	2.013396
43	0x3f30f2f6	0.6912073
44	0x3fd9d12c	1.7016959
45	0x3fcf13b3	1.6177887
46	0x401562cf	2.3341558
47	0x4002bf34	2.04292
48	0x3fe91800	1.8210449
49	0x402ae0f9	2.6699812
50	0x3f6dbcb7	0.9286608
51	0x3f6f427d	0.9346083
52	0x3fa48cf8	1.285552
53	0x3fb1f216	1.3902004
54	0x3fe0dd9f	1.7567633
55	0x3fc2e9cc	1.5227599
56	0x3f30fe80	0.69138336
57	0x3fed2a75	1.8528582
58	0x3f8e8f57	1.1137494
59	0x40167cd2	2.3513684
60	0x3fbb2576	1.4620807
61	0x3fc69884	1.5515294
62	0x4033da38	2.810194
63	0x3ff00c9d	1.8753849
64	0x3ffa7584	1.9567113
65	0x4076c267	3.8556154
66	0x3ffdbc55	1.9823099
67	0x3fa8f13a	1.3198617
68	0x401066f4	2.2562838
69	0x3fc8bc81	1.5682527
70	0x3f81d1d9	1.0142165
71	0x3fb5b3e1	1.419552
72	0x3f98732b	1.1910146
73	0x3ff446fb	1.9084162
74	0x40040c74	2.06326
75	0x3f846bd1	1.0345403
76	0x3fb62b7a	1.4232018
77	0x3fe53997	1.79082
78	0x4002c0fa	2.0430284
79	0x40083384	2.1281443
80	0x3fa3480b	1.2756361
81	0x3f8d6124	1.104527
82	0x3fae7b8c	1.3631454
83	0x3fde74be	1.7379377
84	0x40526099	3.2871459
85	0x3fea67d7	1.831294
86	0x3fa08746	1.2541282
87	0x3ff3f467	1.9058961
88	0x3fb18232	1.3867857
89	0x3f8518eb	1.0398229
90	0x3fe9673f	1.8234633
91	0x3f9b8b3b	1.2151865
92	0x3f877443	1.0582355
93	0x3f8b6c06	1.0892341
94	0x3fed4c72	1.8538954
95	0x3f86253b	1.0480112
96	0x4029c1b7	2.6524484
97	0x3ff6e74f	1.928934
98	0x3fc09078	1.5044088
99	0x402d1073	2.704129
100	0x3fe248db	1.7678484
101	0x3f9e8d43	1.238686
102	0x3f89abca	1.0755551
103	0x4002b1e6	2.042108
104	0x4028dd3e	2.6385036
105	0x3fc6bf82	1.5527194
106	0x3fe03f0c	1.751924
107	0x3fb926b8	1.4464941
108	0x400922ea	2.142756
109	0x4046e29c	3.1075811
110	0x400b5765	2.1772091
111	0x3f66b7c4	0.90124154
112	0x3f8c10d8	1.094264
113	0x3f9359ce	1.1511781
114	0x3fdfbb53	1.7479042
115	0x3fd013a1	1.625599
116	0x3ff6b1ca	1.9273007
117	0x40454c41	3.0827792
118	0x3fe7de79	1.8114768
119	0x3fce8cb8	1.6136694
120	0x3fa2e6ce	1.2726686
121	0x4016dfd5	2.3574116
122	0x400adc83	2.169709
123	0x4030360b	2.7532985
124	0x3ff1b59b	1.8883547
125	0x3ffc5b6c	1.97154
126	0x4016dfd4	2.3574114
127	0x3f9ce027	1.2255906

batch_norm2.running_var f4 [128]
0	0x40658508	3.5862446
1	0x42969782	75.29591
2	0x422ed977	43.712368
3	0x400c9548	2.1966114
4	0x3faad857	1.3347272
5	0x3fd5187c	1.6648097
6	0x4081b7af	4.0536723
7	0x404b81ca	3.1797967
8	0x4251d7fa	52.460915
9	0x4227877e	41.882317
10	0x4210c3fd	36.191395
11	0x3fe16081	1.7607576
12	0x4208aa35	34.166218
13	0x40940083	4.6250625
14	0x406af16f	3.670986
15	0x4047c5d1	3.1214488
16	0x4089b2cf	4.303077
17	0x40b34c46	5.6030607
18	0x40380d2f	2.8758047
19	0x41ad9446	21.6974
20	0x422aa368	42.659576
21	0x41d532bb	26.64977
22	0x41907998	18.059372
23	0x426b43da	58.81626
24	0x4049dda2	3.1541524
25	0x40639c82	3.5564275
26	0x428961bd	68.690895
27	0x4226739d	41.612904
28	0x4253edf9	52.982395
29	0x415d55fd	13.833493
30	0x3fe2ddde	1.7723958
31	0x41e27fa9	28.312334
32	0x4050c4e4	3.2620173
33	0x42846f04	66.21683
34	0x404696b5	3.1029484
35	0x40091363	2.1418083
36	0x4082383a	4.0693636
37	0x41c8ce0c	25.100609
38	0x401e64f3	2.4749115
39	0x4023cf3e	2.559524
40	0x42a72001	83.56251
41	0x414e81ed	12.90672
42	0x4244bf8a	49.18705
43	0x40b7f6a2	5.7488565
44	0x4237d4b3	45.957714
45	0x400cf989	2.2027304
46	0x428a7259	69.223335
47	0x404b61e6	3.1778502
48	0x42230924	40.758926
49	0x40758f61	3.8368762
50	0x4117b56c	9.481792
51	0x4188da23	17.106512
52	0x41a05557	20.04167
53	0x4207200e	33.781303
54	0x42406ec3	48.108166
55	0x400cac1d	2.198005
56	0x41083c09	8.514657
57	0x40365e69	2.8495123
58	0x41aa154e	21.260403
59	0x4059bd16	3.402166
60	0x41ecf7f5	29.621073
61	0x41dd0899	27.629198
62	0x42f2a610	121.32434
63	0x425f6cfd	55.856434
64	0x40528941	3.2896273
65	0x40ccb297	6.3968005
66	0x4208edd3	34.23225
67	0x41ebbca8	29.467117
68	0x4274dd6a	61.216225
69	0x40127577	2.2884195
70	0x41920919	18.254442
71	0x4007bccb	2.120898
72	0x4016d04c	2.3564634
73	0x423060cf	44.09454
74	0x4068784c	3.6323423
75	0x4109adfa	8.604975
76	0x40546e08	3.3192158
77	0x4217f968	37.99356
78	0x42431a94	48.775955
79	0x40561274	3.3448763
80	0x3fe55788	1.7917337
81	0x40610aec	3.5162916
82	0x4201db6c	32.46428
83	0x4250d144	52.20436
84	0x40934a6f	4.602836
85	0x41ff7d45	31.936167
86	0x4015b907	2.3394182
87	0x422004f3	40.004833
88	0x420a04bc	34.504623
89	0x410a106f	8.629012
90	0x4069dc83	3.654084
91	0x40125e3d	2.2870018
92	0x40643f8c	3.5663786
93	0x4005be69	2.0897467
94	0x42048aaf	33.135433
95	0x40382c29	2.8776953
96	0x4071a8b8	3.7759228
97	0x4049a20b	3.1505153
98	0x41f67f1b	30.812063
99	0x40acbef9	5.398312
100	0x424e225c	51.533554
101	0x402e1f64	2.720666
102	0x3fe52d74	1.7904496
103	0x4278086e	62.008232
104	0x429b0167	77.50274
105	0x401ca2a6	2.4474273
106	0x41b876d0	23.058014
107	0x3ff3355b	1.9000658
108	0x4242486f	48.570736
109	0x42f60925	123.01786
110	0x4047a76a	3.1195931
111	0x416d4325	14.828893
112	0x4197c816	18.972698
113	0x3ffc313d	1.9702526
114	0x40538bb9	3.305403
115	0x4207d4e8	33.957916
116	0x405d8263	3.4610832
117	0x430b41ec	139.2575
118	0x424396e4	48.897354
119	0x420f08f0	35.758728
120	0x41c3ab00	24.458496
121	0x4280d253	64.41079
122	0x40566ff9	3.3505843
123	0x40936c5a	4.6069765
124	0x4234ce63	45.20155
125	0x4047fe87	3.12491
126	0x405d377c	3.4565115
127	0x41772833	15.447314
