src_knn_cluster/seed0/FOLD0_.pth (torch, 798771 bytes, 31 tensors)

batch_norm1.weight f4 [1162]
0.89255047 0.9075567 0.9597353 0.9141283 0.9253991 0.9155297 0.9655104 0.8937536
0.9518222 0.8947855 0.89779 1.0037059 0.91077036 1.003498 0.8727696 0.91998005
0.96971524 0.91781676 0.9531387 0.8889099 0.9186771 0.9148491 0.8847348 0.90567183
0.90987575 0.882409 0.9503823 0.9722851 0.9822804 0.90925777 0.82909137 1.0370588
0.88688505 0.8956473 0.88719976 0.84422016 0.9129495 0.9326824 0.9012474 0.9807332
0.94464 0.92613155 0.9442664 0.9174786 0.7721977 0.9051482 0.92166346 0.85495716
0.93213487 0.9189347 0.9344487 0.8743974 0.98337305 0.95979553 0.9206819 0.8917495
0.9326162 0.9313691 0.86120886 0.94276255 0.87406474 0.85452867 0.90406305 0.90948975
0.83968717 0.87118846 0.9234675 1.0250679 0.97727853 0.9984675 0.87805307 0.96719706
0.8607224 0.8963575 0.9459328 0.8999331 0.914368 0.9468264 0.8994114 0.878102
0.96638685 0.93266225 0.9688464 0.8855745 0.8728256 0.8959847 0.8845674 0.9115601
0.93289906 0.9904339 0.9140248 0.9277723 0.91895455 0.88891953 0.8933346 0.90695524
0.88312715 0.9699018 0.97367984 0.9209165 0.9774133 0.9239352 0.926988 0.9928391
0.9437829 0.9886313 0.8819921 0.9883689 0.9080482 0.8842079 0.8697969 0.8771102
0.84321594 0.9153614 0.8692851 1.0103554 0.92160904 0.826464 1.0206888 0.97465956
0.9373385 0.9208254 0.9109477 0.8925884 0.8899996 0.88754004 0.9511405 0.9176678
0.79066414 0.90910596 0.94409376 0.9797108 0.88260454 0.93651354 0.9332154 1.008826
0.9159458 0.86687636 0.8462429 0.9534733 0.8626676 0.9041449 0.9246204 0.9778924
0.9883344 0.9285254 0.9184838 0.84666365 0.9662873 0.92651796 0.9095049 0.8766394
0.9055563 0.94993407 0.98555934 0.90627736 0.9054879 0.8962518 0.93559533 0.9108211
0.96886003 0.99309117 0.8745454 0.9852551 0.9921565 0.9333499 0.8775719 0.87438816
0.8806632 0.9177997 0.9134794 0.95862883 0.90265656 0.96349543 0.92811847 0.9082316
0.91513354 0.8942885 0.9259874 0.89432085 0.7948128 0.93809384 0.9479753 0.97017294
0.9447418 0.9450629 0.93569463 0.91842216 0.9541361 0.96596646 0.8978809 0.96300143
0.8900571 0.9169524 0.93325835 0.8734866 0.8709799 0.87784845 0.9518523 0.94266576
0.92094713 0.9316334 0.93603444 0.9133952 0.9201226 0.90463614 1.0706453 0.95279735
0.88522077 0.9104275 0.89346397 0.96076405 0.9576624 0.9265701 0.93675 0.9488169
0.9713351 0.97120875 0.96104217 0.92938787 0.9864537 0.91486233 0.99318045 0.9259645
0.85610133 0.9125446 0.8790927 0.9000245 0.9215971 1.002862 0.9442789 0.9402007
0.8727525 0.97056746 0.8984559 0.9288471 0.83598244 0.9785428 0.922303 1.0053272
0.86959356 0.9107563 0.92549413 0.94278324 0.92421037 0.93755877 0.8991563 0.90280694
0.96044254 0.8960855 0.91298294 0.88956827 0.9240298 0.92679405 0.8706157 0.8813588
00000000: 307e 643f a355 683f 36b1 753f 5004 6a3f
00000010: f5e6 6c3f 2860 6a3f b12b 773f 09cd 643f
00000020: 9faa 733f aa10 653f 91d5 653f 6f79 803f
00000030: 3f28 693f 9f72 803f d46d 5f3f d083 6b3f
00000040: 423f 783f 0af6 6a3f e600 743f 998f 633f
00000050: 6c2e 6b3f 8d33 6a3f fb7d 623f 1cda 673f
00000060: 9eed 683f 8ee5 613f 414c 733f ade7 783f
00000070: ba76 7b3f 1ec5 683f 553f 543f 58be 843f
00000080: e60a 633f 2449 653f 861f 633f d01e 583f
00000090: 0fb7 693f 46c4 6e3f 26b8 663f 5511 7b3f
000000a0: edd3 713f f516 6d3f 71bb 713f e1df 6a3f
000000b0: c0ae 453f cbb7 673f 23f2 6b3f 79de 5a3f
000000c0: 64a0 6e3f 4e3f 6b3f 0838 6f3f 82d8 5f3f
000000d0: 56be 7b3f 29b5 753f cfb1 6b3f b249 643f
000000e0: efbf 6e3f 356e 6e3f 2f78 5c3f e358 713f
000000f0: b5c2 5f3f 64c2 5a3f ad70 673f 52d4 683f
00000100: bdf5 563f 3506 5f3f 5e68 6c3f 6d35 833f
00000110: ed2e 7a3f 919b 7f3f 16c8 603f 3a9a 773f
00000120: 4e58 5c3f af77 653f a728 723f 0462 663f
00000130: 0514 6a3f 3763 723f d33f 663f 4bcb 603f
00000140: 2165 773f f4c2 6e3f 5106 783f 03b5 623f
00000150: 8071 5f3f 415f 653f 0273 623f 015c 693f
00000160: 79d2 6e3f 138d 7d3f 87fd 693f 7c82 6d3f
00000170: 9b40 6b3f 3b90 633f 94b1 643f 382e 683f
00000180: 9f14 623f 7c4b 783f 1543 793f 2fc1 6b3f
00000190: c237 7a3f 0487 6c3f 164f 6d3f b42a 7e3f
000001a0: c29b 713f f116 7d3f 3cca 613f bf05 7d3f
000001b0: d975 683f 735b 623f 02ab 5e3f 4b8a 603f
000001c0: 00dd 573f 2055 6a3f 7889 5e3f 5353 813f
000001d0: 92ee 6b3f 2593 533f eea5 823f 4a83 793f
000001e0: 6af5 6f3f 37bb 6b3f de33 693f ac80 643f
000001f0: 04d7 633f d335 633f f27d 733f 47ec 6a3f
00000200: f768 4a3f 2bbb 683f 21b0 713f 54ce 7a3f
00000210: 5ff2 613f 5abf 6f3f 34e7 6e3f 3621 813f
00000220: 6d7b 6a3f 9ceb 5d3f 60a3 583f d416 743f
00000230: c9d7 5c3f 0a76 673f ecb3 6c3f 2857 7a3f
00000240: 7c03 7d3f d7b3 6d3f c121 6b3f f3be 583f
00000250: 9b5e 773f 4830 6d3f 50d5 683f 716b 603f
00000260: 8ad2 673f e12e 733f 9e4d 7c3f cb01 683f
00000270: 0ece 673f c270 653f 2d83 6f3f 922b 693f
00000280: 3607 783f 393b 7e3f 35e2 5f3f ae39 7c3f
00000290: f8fd 7d3f 05f0 6e3f 8da8 603f e7d7 5f3f
000002a0: 2573 613f ecf4 6a3f c9d9 693f b368 753f
000002b0: 8014 673f a3a7 763f 2c99 6d3f de81 683f
000002c0: 3146 6a3f 17f0 643f 830d 6d3f 36f2 643f
000002d0: da78 4b3f eb26 703f 82ae 723f 415d 783f
000002e0: 99da 713f a4ef 713f af89 6f3f b71d 6b3f
000002f0: 4342 743f 9449 773f 86db 653f 4387 763f
00000300: c8da 633f 64bd 6a3f 05ea 6e3f d19c 5f3f
00000310: 8af8 5e3f adba 603f 98ac 733f 8b52 713f
00000320: 31c3 6b3f 877f 6e3f f49f 6f3f 45d4 693f
00000330: 288d 6b3f 3c96 673f e80a 893f 87ea 733f
00000340: d49d 623f c711 693f 0eba 643f a2f4 753f
00000350: 5d29 753f b333 6d3f d9ce 6f3f aae5 723f
00000360: 6ba9 783f 23a1 783f dc06 763f 5dec 6d3f
00000370: 3b88 7c3f 6b34 6a3f 1341 7e3f 020c 6d3f
00000380: 7529 5b3f 869c 693f 380c 613f 0168 663f
00000390: caed 6b3f c85d 803f 43bc 713f feb0 703f
000003a0: b56c 5f3f 1c77 783f 3501 663f ecc8 6d3f
000003b0: f202 563f c881 7a3f 0d1c 6c3f 90ae 803f
000003c0: af9d 5e3f 5327 693f 2fed 6c3f 3e5a 713f
000003d0: 0d99 6c3f da03 703f 1b2f 663f 5b1e 673f
000003e0: 90df 753f dc65 653f 40b9 693f bfba 633f
000003f0: 388d 6c3f 6042 6d3f ace0 5e3f bba0 613f

batch_norm1.bias f4 [1162]
-0.015526241 0.0050711217 0.052729633 -0.026488101 -0.020890381 0.049478397 0.079363346 0.03493619
0.064768 -0.013865883 -0.065092504 -0.04031873 0.010684723 0.02752262 0.014642623 -0.009924859
0.004020229 -0.007172443 0.03796993 -0.010614638 0.03235304 0.026477752 0.04151284 0.007395973
-0.038821246 -0.031290237 0.002810375 -0.02088988 0.005433221 -0.042416397 0.042512916 -0.030246653
0.05963169 -0.0066242167 -0.044119976 -0.03133371 0.00032421327 -0.039105173 0.016874747 0.0024651838
-0.038265754 -0.016687261 -0.018524984 0.010972371 0.031122502 0.022675224 0.046872925 -0.05157381
-0.022582423 -0.011701864 -0.036883034 0.006935702 0.04362881 0.046134494 -0.04819258 -0.017067166
-0.018933684 0.033831667 -0.061751645 0.016963016 0.055183012 -0.021823218 -0.037779912 0.008671319
0.075976826 0.017430397 0.032596957 0.00208484 -0.02646619 -0.023499394 -0.016319755 0.007859286
0.07665012 0.01288818 0.013807978 -0.003953356 -0.039137546 -0.06177603 -0.08828779 0.02051396
-0.018943634 -0.039448425 -0.02056441 -0.0032531666 0.027958948 0.02321466 0.057876114 -0.0016566276
0.014456075 0.011957598 -0.02574229 0.063793615 -0.033229165 0.00475995 -0.031709142 0.031701475
-0.017126657 -0.0029530823 0.07744834 0.028679986 0.026573095 0.0142691415 -0.021985281 0.05351176
-0.01353614 -0.019163754 -0.0069030835 0.062397953 -0.003665998 0.014953334 -0.039228752 -0.014215433
0.0008428013 -0.019485606 -0.019563707 0.058370326 -0.012107482 -0.019027924 0.08213564 -0.05105303
0.027393622 -0.021866178 -0.06445268 0.034368463 -0.018651372 0.0025529359 0.010346579 -0.0050991895
0.0027365605 -0.048121173 -0.028574925 0.041289203 0.018431207 -0.05369006 0.024101743 -0.05569341
-0.047969494 0.01111444 0.0051998333 -0.018943965 -0.043749776 0.008605046 -0.03196911 0.063858524
0.00057785475 -0.006511994 0.013853411 0.055690803 0.05568023 0.032584816 0.033100154 0.0083353715
0.012673519 -0.0026049018 0.005636549 -0.022129066 -0.038284834 0.02456769 0.020413373 0.034559507
-0.007787717 -0.043518513 -0.038070276 0.096156254 -0.0059893383 -0.03368946 -0.0080583375 0.058249477
0.00055623305 -0.019828133 -0.030625068 0.04945646 0.04096949 -0.05687904 -0.005992517 0.046044245
-0.029744036 -0.0008207801 -0.007880844 -0.037347 -0.01780433 -0.023107177 -0.022946881 0.009156894
-0.08027856 0.021620383 0.019528368 0.103504404 -0.04921656 0.01209312 -0.048358593 0.0033383826
0.045319762 -0.0049112095 0.071878746 -0.03147487 0.013300485 -0.004414953 -0.07785927 0.021108942
0.013404208 -0.024542715 0.03167951 -0.0010338565 -0.009990413 -0.017906211 -0.0008613197 0.03900462
-0.012200629 0.015336401 -0.020160947 -0.07426934 -0.039190546 -0.025343804 -0.008538067 -0.011825198
-0.04387472 0.037212852 -0.033417635 -0.06757754 0.03004713 -0.019968543 0.015460276 -0.013880735
-0.030214384 0.024844484 0.0014685018 -0.043012664 -0.038804594 -0.022363406 -0.053305093 -0.02855985
-0.009462289 0.012047579 0.025622226 0.036330063 -0.0050473227 0.036010023 0.022621399 -0.03069787
0.09188273 -0.063687 0.035133682 0.014191282 0.036691304 -0.012724783 -0.0016177656 0.017041463
-0.007978183 0.013324221 -0.0040314915 0.013073353 0.060325403 0.013328293 -0.0021958149 -0.06792813
00000000: c661 7ebc a72b a63b 07fb 573d 93fd d8bc
00000010: 4e22 abbc dca9 4a3d 4089 a23d 4019 0f3d
00000020: 16a5 843d bb2d 63bc 384f 85bd 4125 25bd
00000030: fa0e 2f3c 1e77 e13c 9de7 6f3c e09b 22bc
00000040: 20bc 833b d006 ebbb 5b86 1b3d 05e9 2dbc
00000050: 9f84 043d dfe7 d83c 5e09 2a3d eb59 f23b
00000060: 0703 1fbd 312a 00bd 452e 383b 4121 abbc
00000070: 2909 b23b d1bc 2dbd 0622 2e3d d4c7 f7bc
00000080: 5c40 743d f50f d9bb 26b7 34bd c757 00bd
00000090: 2bfb a939 bf2c 20bd e93c 8a3c ec8e 213b
000000a0: 8dbc 1cbd b9b3 88bc b5c1 97bc 76c5 333c
000000b0: 9ef4 fe3c 64c1 b93c d3fd 3f3d 0f3f 53bd
000000c0: c6fe b8bc 2db9 3fbc aa12 17bd e344 e33b
000000d0: 20b4 323d 86f7 3c3d 9565 45bd 71d0 8bbc
000000e0: d01a 9bbc 1393 0a3d 4bef 7cbd 06f6 8a3c
000000f0: 9507 623d 9bc6 b2bc 1cbf 1abd 2612 0e3c
00000100: bd99 9b3d 31ca 8e3c 6384 053d d0a1 083b
00000110: a0cf d8bc cd81 c0bc 02b1 85bc 3cc4 003c
00000120: bdfa 9c3d f228 533c db3a 623c 278b 81bb
00000130: b14e 20bd dd08 7dbd 3bd0 b4bd e40c a83c
00000140: ae2f 9bbc ac94 21bd b276 a8bc 1433 55bb
00000150: 2a0a e53c ac2c be3c 810f 6d3d 3323 d9ba
00000160: 2cd9 6c3c cde9 433c 7fe1 d2bc 3aa6 823d
00000170: 4e1b 08bd 5bf9 9b3b 72e1 01bd 68d9 013d
00000180: 344d 8cbc 8088 41bb 3c9d 9e3d 4af2 ea3c
00000190: d2af d93c 1ec9 693c 7a1a b4bc 262f 5b3d
000001a0: b0c6 5dbc 4efd 9cbc 4333 e2bb ff94 7f3d
000001b0: 3e41 70bb d4fe 743c 54ae 20bd d9e7 68bc
000001c0: 70ef 5c3a 47a0 9fbc 1144 a0bc b915 6f3d
000001d0: 765e 46bc 73e0 9bbc bb36 a83d fb1c 51bd
000001e0: 9768 e03c b320 b3bc c4ff 83bd f2c5 0c3d
000001f0: c3ca 98bc 284f 273b b384 293c 1a17 a7bb
00000200: de57 333b b51a 45bd f615 eabc de1e 293d
00000210: 0bfd 963c 1cea 5bbd 0571 c53c c61e 64bd
00000220: a97b 44bd 5719 363c 5d63 aa3b 6030 9bbc
00000230: f732 33bd 2efc 0c3c 0bf2 02bd 42c8 823d
00000240: 2d7b 173a 9162 d5bb 6bf9 623c 0a1c 643d
00000250: f410 643d a877 053d 0794 073d 1591 083c
00000260: 97a4 4f3c 00b7 2abb cdb2 b83b 0448 b5bc
00000270: 8fd0 1cbd 2e42 c93c f239 a73c 458e 0d3d
00000280: 1b30 ffbb 7840 32bd 94ef 1bbd 92ed c43d
00000290: 3642 c4bb f6fd 09bd 1e07 04bc 0197 6e3d
000002a0: 2bd0 113a 9c6e a2bc 6ce1 fabc db92 4a3d
000002b0: a0cf 273d fff9 68bd e05c c4bb e498 3c3d
000002c0: c4a9 f3bc 9f29 57ba a81e 01bc 2bf9 18bd
000002d0: 63da 91bc 434b bdbc 19fb bbbc cc06 163c
000002e0: 1669 a4bd 3b1d b13c f5f9 9f3c 1efa d33d
000002f0: 4e97 49bd 3922 463c a913 46bd c4c8 5a3b
00000300: 37a1 393d 36ee a0bb 2a35 933d cbeb 00bd
00000310: 47ea 593c 4fab 90bb ae74 9fbd a9ec ac3c
00000320: 539d 5b3c ce0d c9bc 60c2 013d 7882 87ba
00000330: d4ae 23bc 0cb0 92bc 30ca 61ba 4fc3 1f3d
00000340: 26e5 47bc 8745 7b3c 9228 a5bc 861a 98bd
00000350: 4486 20bd cf9d cfbc 40e3 0bbc 7abe 41bc
00000360: fab5 33bd 816c 183d eee0 08bd 1866 8abd
00000370: 6625 f63c 1295 a3bc 194d 7d3c 066c 63bc
00000380: 2884 f7bc a986 cb3c be7a c03a 0c2e 30bd
00000390: 91f1 1ebd 7633 b7bc 7156 5abd 59f6 e9bc
000003a0: b707 1bbc 3563 453c b4e5 d13c d5ce 143d
000003b0: 0364 a5bb 3f7f 133d 8350 b93c 197a fbbc
000003c0: 032d bc3d 546e 82bd 56e8 0f3d 8d82 683c
000003d0: 9f49 163d 9c7b 50bc 350b d4ba 8a9a 8b3c
000003e0: edb6 02bc d54d 5a3c 9a1a 84bb 9e31 563c
000003f0: c517 773d ea5e 5a3c a9e7 0fbb e71d 8bbd

batch_norm1.running_mean f4 [1162]
0.24739912 0.14983511 0.084110044 0.05245234 -0.14723086 -0.17823341 -0.21073437 0.11520844
-0.1319601 0.19763257 0.12362341 0.18739994 -0.17158353 0.15299109 -0.16479746 -0.15142815
0.064810365 -0.13664453 -0.11702034 0.15209924 -0.080056995 -0.046010137 -0.20806235 0.37585312
-0.17668469 0.04323247 -0.04452438 0.101415455 -0.20908453 -0.6264932 0.572972 0.18956955
-0.20439616 -0.14656605 -0.10115894 -0.0063640545 -0.17972325 0.19370429 0.057838015 0.23181815
-0.02721139 -0.6557041 0.040651195 -0.049004834 0.17114471 0.2409111 -0.18491763 -0.1510644
-0.02123212 -0.5024631 -0.22118573 0.0128131 -0.28663182 -0.23480439 -0.36402252 0.30779055
0.017145794 -0.50246227 0.18499683 0.42787522 -0.0101027815 -0.40579486 0.26530212 -0.5150554
0.012197454 -0.10372274 0.024297746 0.22671488 0.2633699 0.24572851 0.027219284 0.35274345
0.11425097 0.03047028 0.22230971 0.4006137 0.073305964 0.120480776 0.19149514 -0.4491341
0.18116692 -0.26106977 -0.071234725 0.60087615 0.12366499 0.2358013 0.035138715 0.10897887
0.35309932 0.0030644618 -0.13479748 -0.0276437 0.20069717 -0.16090803 -0.48579833 -0.060092326
-0.032544255 0.1654456 0.032018125 0.10729499 -0.104597054 -0.382982 0.43163848 -0.11128593
0.20227656 -0.23658878 0.015056432 0.2608365 0.3893043 0.2234179 0.02864284 -0.0926327
0.19568063 -0.030382378 -0.07716406 -0.105311476 0.1697556 0.15136875 -0.12119684 0.22868751
0.26531738 0.2687853 0.37149468 0.30926988 0.34311092 0.29889813 0.04612773 -0.3899382
0.11254403 0.28100407 -0.1747966 0.093300305 0.50425225 0.23977607 -0.06749257 -0.07319422
0.23767184 0.34333718 0.11885608 -0.14605969 -0.02461069 -0.03683704 -0.016164439 0.036245372
0.35353303 0.09009161 -0.15352535 0.068668224 0.21271537 -0.016340131 -0.081544474 0.21495278
-0.13580215 -0.11476644 0.22850652 0.32702336 0.24864519 -0.1872298 -0.48514244 -0.28878453
0.03958899 0.16274337 -0.009527202 0.13745195 0.24210146 0.11168467 -0.23097317 -0.39497134
-0.25474724 0.21224129 0.17972325 -0.12338283 0.097200975 0.39900777 -0.21766974 -0.008476852
-0.16028117 0.08458428 -0.11920213 0.08262677 0.45339346 0.107481234 0.109924205 -0.07079111
0.1747465 -0.1397842 0.26432478 0.026848419 -0.0394547 0.25328898 0.04427349 0.022511909
-0.18298577 0.009018874 0.023797471 0.30066174 -0.080177546 -0.49937585 0.19144435 -0.016171949
-0.024408361 0.1687433 -0.28077343 0.18554989 0.08499664 -0.29678506 -0.2418024 0.04481992
-0.1557718 0.1341162 0.17302813 0.22464757 0.16607876 -0.033562653 -0.031051638 0.37280968
0.14642926 -0.4430664 0.22884972 0.04330343 -0.0074946815 0.05898113 0.17719372 -0.090113595
-0.5015611 -0.07816376 0.24720477 0.029979393 0.34169883 0.09734567 0.19229937 -0.018302297
0.2944193 -0.039760854 0.35269517 -0.2536926 -0.12936175 -0.124057814 -0.09975886 -0.3844431
-0.098529585 0.116758525 0.016971532 0.0025995024 -0.11834086 -0.06406675 -0.12419637 -0.20404007
0.16200289 -0.082344145 0.007862075 0.20083432 0.16118075 -0.22248992 -0.12070334 -0.19434926
00000000: 3256 7d3e 606e 193e e341 ac3d 44d8 563d
00000010: b0c3 16be d282 36be c0ca 57be 67f2 eb3d
00000020: 8c20 07be 3160 4a3e 452e fd3d c5e5 3f3e
00000030: 98b3 2fbe b2a9 1c3e aac0 28be fb0f 1bbe
00000040: 4cbb 843d 8bec 0bbe 5ca8 efbd e7bf 1b3e
00000050: ecf4 a3bd 2075 3cbd 4c0e 55be d26f c03e
00000060: d5ec 34be 8814 313d 325f 36bd e8b2 cf3d
00000070: 411a 56be dc61 20bf 4bae 123f 851e 423e
00000080: 3a4d 51be 6915 16be 6b2c cfbd 8f89 d0bb
00000090: 5f09 38be 6b5a 463e 8ee7 6c3d bd61 6d3e
000000a0: 6cea debc 39dc 27bf de81 263d 4bb9 48bd
000000b0: 8f40 2f3e 66b1 763e 0c5b 3dbe a0b0 1abe
000000c0: fcee adbc 6ca1 00bf 837e 62be 09ee 513c
000000d0: 68c1 92be 9070 70be 2961 babe b996 9d3e
000000e0: 5675 8c3c 5ea1 00bf cf6f 3d3e 7612 db3e
000000f0: 2386 25bc 58c4 cfbe aed5 873e acda 03bf
00000100: d5d7 473c 976c d4bd 110c c73c f227 683e
00000110: 6bd8 863e 41a0 7b3e fafa de3c ca9a b43e
00000120: 6afc e93d cf9c f93c 28a5 633e 3d1d cd3e
00000130: 7021 963d a0be f63d 4d17 443e e8f4 e5be
00000140: d283 393e f0aa 85be 83e3 91bd 05d3 193f
00000150: 1244 fd3d e575 713e 9ded 0f3d 5030 df3d
00000160: 6fc9 b43e 23d5 483b 5a08 0abe 0a75 e2bc
00000170: 8f83 4d3e 13c5 24be 8fba f8be 5f23 76bd
00000180: 204d 05bd 926a 293e 7025 033d 7abd db3d
00000190: fb36 d6bd 3716 c4be b8ff dc3e e1e9 e3bd
000001a0: 9621 4f3e 5444 72be 41af 763c 5d8c 853e
000001b0: e552 c73e a9c7 643e 64a4 ea3c 37b6 bdbd
000001c0: 8160 483e 77e4 f8bc 3108 9ebd 8bad d7bd
000001d0: 69d4 2d3e 6900 1b3e 0d36 f8bd 0f2d 6a3e
000001e0: aed7 873e 3a9e 893e 8d34 be3e 9f58 9e3e
000001f0: 3cac af3e 2d09 993e 6ef0 3c3d fba5 c7be
00000200: 7c7d e63d c4df 8f3e e1fd 32be 3b14 bf3d
00000210: ad16 013f dc87 753e 8b39 8abd dae6 95bd
00000220: 3f60 733e e4c9 af3e d16a f33d ac90 15be
00000230: 5c9c c9bc 70e2 16bd 496b 84bc 0776 143d
00000240: 4802 b53e f381 b83d c035 1dbe eda1 8c3d
00000250: 0fd2 593e bddb 85bc ca00 a7bd 951c 5c3e
00000260: b80f 0bbe ab0a ebbd 9dfd 693e 9b6f a73e
00000270: d89c 7e3e 2bb9 3fbe 9764 f8be 91db 93be
00000280: 1128 223d 33a6 263e fb17 1cbc 34c0 0c3e
00000290: 72e9 773e efba e43d 3b84 6cbe af39 cabe
000002a0: 3b6e 82be c855 593e 5f09 383e 23b0 fcbd
000002b0: 4e11 c73d bf4a cc3e d1e4 5ebe 7fe2 0abc
000002c0: bf20 24be 863a ad3d 3f20 f4bd 3938 a93d
000002d0: 3023 e83e 1f1f dc3d f11f e13d eefa 90bd
000002e0: bff0 323e 9723 0fbe 9455 873e 37f1 db3c
000002f0: 409b 21bd 18af 813e 1e58 353d e56a b83c
00000300: 9f60 3bbe e6c3 133c eaf2 c23c 56f0 993e
00000310: 2034 a4bd 31ae ffbe fd09 443e 097b 84bc
00000320: 0bf4 c7bc 0bcb 2c3e 89c1 8fbe ca00 3e3e
00000330: b812 ae3d 36f4 97be 0c9b 77be 1895 373d
00000340: a582 1fbe c255 093e 492e 313e 030a 663e
00000350: 8d10 2a3e fe78 09bd 0160 febc e9e0 be3e
00000360: 8df1 153e 99d9 e2be 9557 6a3e f05e 313d
00000370: f295 f5bb 3396 713d 4572 353e 7a8d b8bd
00000380: 4f66 00bf 5214 a0bd 3f23 7d3e 5897 f53c
00000390: 26f3 ae3e 2b5d c73d 20ea 443e b3ee 95bc
000003a0: 20be 963e 47dc 22bd 7694 b43e ffe3 81be
000003b0: 6877 04be 0612 febd 604e ccbd bad5 c4be
000003c0: e1c9 c9bd 181f ef3d e207 8b3c 6a5c 2a3b
000003d0: b15c f2bd 6e35 83bd ab5a febd e1ef 50be
000003e0: 16e4 253e 0ca4 a8bd efcf 003c 83a7 4d3e
000003f0: 910c 253e 66d4 63be 5033 f7bd 7e03 47be

batch_norm1.running_var f4 [1162]
1.8463293 1.0352218 0.92584425 0.9612338 1.3804305 1.3068742 3.161768 1.0839946
1.7266891 1.5472916 1.4552395 1.7095762 1.682305 2.0291383 1.2510879 1.5627131
0.79526335 1.6942772 1.1630996 0.9704105 1.1031084 1.6771469 1.6349888 2.4278755
0.84405106 1.2177358 1.3764455 1.0770154 2.1420448 5.0837855 4.173989 0.9066877
1.4911437 1.5854392 1.0176436 1.0554876 1.2188799 1.1216611 1.0129975 2.1247928
0.949773 5.4959545 1.0731238 0.97646916 1.5866457 1.198034 1.5223176 1.5886303
1.4901425 3.8349388 1.9012345 0.94760394 1.5265619 2.9680643 3.0813196 2.095168
0.9332561 4.1775165 1.5820626 1.5796062 1.3355362 4.0016418 2.0725064 5.049458
1.1528325 1.1421558 1.0109867 1.1409845 1.9463236 1.3907622 1.1485641 2.3977773
1.0764457 0.87490857 1.8784274 3.5792677 1.410076 1.2248805 1.7784816 2.9573746
1.4736102 2.2328637 0.95150197 4.776859 1.0929186 2.199321 1.1084859 1.2740345
2.4687428 1.7369918 1.245757 0.9514452 1.0100845 1.0781627 3.2773514 1.4201549
0.9301571 1.4747702 1.4277922 1.0086669 0.9785307 2.8908367 3.2043283 1.0650486
1.9492258 2.7984478 1.0386698 2.1123238 4.6432114 1.2915579 2.1084816 1.6625754
1.1110935 1.2855195 1.1270697 1.5262309 1.5590103 1.2587066 1.2109972 2.009221
1.441704 1.9908347 1.6223029 2.4136057 2.6914911 2.0392234 0.9036706 2.6155636
1.1106963 1.6770321 1.7747376 2.0112581 4.0375233 1.0315152 2.6339808 1.8296468
1.6194004 2.4168675 1.7372676 1.0825908 1.5915221 1.6817269 1.4197 1.1166326
2.9681885 0.90211 1.1896416 1.2928811 1.6456697 2.7581303 1.2587999 1.5780495
4.1120324 0.82489985 1.3546156 2.1850479 1.5040933 2.3072224 3.5049489 1.8242625
1.1246018 1.1180182 2.831796 1.3562849 2.019566 0.8619115 1.3928859 3.1583195
1.3421402 1.5254213 1.3248385 1.041721 0.9603855 3.0540352 2.850855 1.6668587
1.5716311 0.81396323 2.0073795 1.167265 3.3266742 1.0287519 1.268774 0.9253521
0.9601329 1.1725754 2.5321774 1.0402578 1.7948911 1.6137944 1.0741293 1.1082236
1.0571505 1.4083593 0.90896434 2.3351493 0.83268714 4.892544 1.7981901 1.0832729
2.7891772 1.418991 1.6145184 1.6337937 0.8195318 1.31916 1.4293492 0.9857274
1.7314829 1.1728982 2.2228746 1.0728514 1.7135048 0.92909855 1.1137668 3.5057924
1.2424108 3.3731132 1.883717 1.4962151 1.0621927 1.6263627 1.4818892 1.0061443
3.728154 1.2081598 1.827215 0.91117173 2.8325346 0.9721142 1.335871 0.9589431
1.962481 1.1243917 3.0405219 2.294876 1.7378579 1.0568933 1.2990469 2.0917401
1.0752 0.8560772 1.1292082 1.5098023 1.306905 0.8738335 1.0865552 1.1380657
1.0545076 1.3967445 0.99716383 1.3391885 1.5744101 2.3242593 1.0912777 1.7277488
00000000: 8554 ec3f 2682 843f 2104 6d3f 6b13 763f
00000010: f2b1 b03f a747 a73f 685a 4a40 56c0 8a3f
00000020: 2604 dd3f a70d c63f 4a45 ba3f 65d3 da3f
00000030: c555 d73f 67dd 0140 a623 a03f fc06 c83f
00000040: 6196 4b3f 13de d83f 73e0 943f d36c 783f
00000050: a832 8d3f c0ac d63f 5047 d13f 5062 1b40
00000060: bb13 583f c4de 9b3f 5e2f b03f a4db 893f
00000070: 4317 0940 5fae a240 5191 8540 af1c 683f
00000080: ccdd be3f acef ca3f 2542 823f 381a 873f
00000090: 4204 9c3f 9792 8f3f e7a9 813f 9bfc 0740
000000a0: 5324 733f dcde af40 1f5c 893f e2f9 793f
000000b0: 3517 cb3f 2e59 993f 4edb c23f 3d58 cb3f
000000c0: fdbc be3f a36f 7540 a75b f33f 2c96 723f
000000d0: 6166 c33f c4f4 3d40 5734 4540 3c17 0640
000000e0: dfe9 6e3f 37ae 8540 0781 ca3f 8930 ca3f
000000f0: daf2 aa3f 730d 8040 f2a3 0440 2995 a140
00000100: 0490 933f 2932 923f 0368 813f c80b 923f
00000110: 2221 f93f 7f04 b23f 2604 933f 2f75 1940
00000120: f9c8 893f 02fa 5f3f 4f70 f03f b912 6540
00000130: 5f7d b43f e2c8 9c3f 49a5 e33f a045 3d40
00000140: 429f bc3f 3de7 0e40 a295 733f 07dc 9840
00000150: c2e4 8b3f adc1 0c40 dee2 8d3f 9013 a33f
00000160: e2ff 1d40 bf55 de3f f774 9f3f ea91 733f
00000170: 734a 813f 3c01 8a3f 20c0 5140 a3c7 b53f
00000180: c71e 6e3f 45c5 bc3f e5c1 b63f ff1b 813f
00000190: fd80 7a3f 7803 3940 b713 4d40 8353 883f
000001a0: 3b80 f93f c519 3340 22f3 843f 5030 0740
000001b0: 3095 9440 c551 a53f 5df1 0640 45cf d43f
000001c0: 5038 8e3f e78b a43f d243 903f 895b c33f
000001d0: a68d c73f 4c1d a13f f501 9b3f 1497 0040
000001e0: c289 b83f acd3 fe3f 9fa7 cf3f 8478 1a40
000001f0: 6441 2c40 a382 0240 f556 673f 6565 2740
00000200: 4c2b 8e3f fda8 d63f 9a2a e33f 74b8 0040
00000210: 6433 8140 b108 843f 2493 2840 de31 ea3f
00000220: 8348 cf3f f5ad 1a40 c95e de3f 5692 8a3f
00000230: ffb6 cb3f d442 d73f bbb8 b53f d1ed 8e3f
00000240: cdf6 3d40 aef0 663f 2d46 983f 217d a53f
00000250: 4ea5 d23f 3585 3040 5b20 a13f 87fd c93f
00000260: c595 8340 a32c 533f 0b64 ad3f d3d7 0b40
00000270: 2186 c03f 88a9 1340 1551 6040 6f81 e93f
00000280: f4f2 8f3f 381b 8f3f 253c 3540 be9a ad3f
00000290: 9240 0140 3ba6 5c3f 164a b23f e821 4a40
000002a0: 40cb ab3f 0141 c33f 4f94 a93f 1d57 853f
000002b0: d3db 753f 5075 4340 6974 3640 a05b d53f
000002c0: 352b c93f e55f 503f e878 0040 f168 953f
000002d0: 3be8 5440 24ae 833f 3067 a23f e0e3 6c3f
000002e0: 45cb 753f f316 963f 320f 2240 2b27 853f
000002f0: febe e53f d190 ce3f 127d 893f 45da 8d3f
00000300: b550 873f 1e45 b43f e3b1 683f 1673 1540
00000310: fc2a 553f b88f 9c40 182b e63f b0a8 8a3f
00000320: e181 3240 7fa1 b53f 8aa8 ce3f 2720 d13f
00000330: d6cc 513f 3cda a83f eaf4 b63f a258 7c3f
00000340: 3ba1 dd3f 8721 963f 9443 0e40 3253 893f
00000350: 2054 db3f 67d9 6d3f e98f 8e3f e75e 6040
00000360: 5107 9f3f 16e1 5740 a31d f13f fa83 bf3f
00000370: eef5 873f a72c d03f 8cae bd3f 56c9 803f
00000380: 139a 6e40 fba4 9a3f 2ee2 e93f 8d42 693f
00000390: 3f48 3540 7adc 783f d2fd aa3f 4c7d 753f
000003a0: 9432 fb3f 11ec 8f3f e997 4240 40df 1240
000003b0: 2172 de3f 4848 873f 2b47 a63f 12df 0540
000003c0: 27a0 893f e027 5b3f e589 903f 3441 c13f
000003d0: aa48 a73f 8db3 5f3f 3e14 8b3f 23ac 913f
000003e0: 1bfa 863f 86c8 b23f 2146 7f3f 876a ab3f
000003f0: 4586 c93f aac0 1440 fdae 8b3f df26 dd3f

dense1.weight f4 [128, 1162]
0.0025936675 0.008640183 -0.047777396 0.008059984 -0.005756356 0.008296151 -0.086565375 0.010358097
-0.038437188 -0.0044319956 -0.024942456 -0.0065754247 -0.062217053 -0.042233165 -0.024084937 -0.006209092
0.025003726 0.012836022 -0.029029597 -0.016302804 0.017908165 0.04313874 -0.038750052 0.031539433
0.0010496485 0.0187062 0.01891543 -0.0021113832 0.01737372 -0.022003839 0.0052734273 0.04055695
-0.031617768 -0.0232772 -0.022910364 -0.044926733 -0.043087263 0.020109953 -0.026417302 -0.0064777792
0.05691455 -0.028663835 -0.011336591 -0.008363721 0.038534336 -0.036849063 0.00084616826 -0.013621832
-0.052085266 -0.009181498 0.027669737 0.021491084 0.030247238 -0.017114516 0.0026687454 -0.0010679963
0.026533535 -0.04688415 -0.0052604754 -0.009373645 -0.0018468066 -0.018703012 0.015192049 -0.020269247
0.017521275 -0.024712818 -0.0037717652 0.010361633 0.019189311 0.026627855 -0.0065400386 0.009000943
-0.011501968 0.004486026 0.046717286 0.05937541 0.036423568 -0.03098421 -0.018572817 -0.015554947
-0.027264608 0.02601112 0.008907147 -0.033467133 0.031711124 0.016852459 -0.007618787 0.013874741
0.039547767 -0.035558462 0.0011199258 -0.028255928 -0.00038419612 -0.011045323 -0.05827327 0.019051744
0.034437764 0.03855426 -0.052075814 -0.01593789 0.032075256 -0.033618983 0.030525962 -0.025163196
-0.010219329 -0.03253071 -0.051613815 -0.042321697 0.020260932 0.008146113 -0.035273094 0.030736031
-0.022080667 0.026624305 0.021480795 -0.030601105 0.0008653431 0.02025167 -0.011944749 0.020800054
-0.032521553 0.028743593 -0.022026757 0.021189298 -0.004852186 -0.013625786 -0.024135597 -0.013264741
-0.016150668 -0.052691698 -0.02085218 -0.0010044839 -0.00960782 0.013106022 -0.0072330222 -0.012134063
0.008830524 0.010498523 0.009379885 0.0029114643 0.00649946 0.004161968 0.045343693 0.003378774
-0.023868605 -0.02803376 0.0097386725 0.015932301 -0.003286226 -0.040237486 9.333227e-05 0.008453726
-0.0423414 0.031150449 0.036200162 -0.027298559 -0.009289347 -0.051496595 -0.017046716 -0.020436037
-0.014801841 -0.0034240247 -0.044189565 -0.024538852 0.0015570065 0.014778873 -0.046550054 -0.0051795547
-0.026439691 0.028512413 0.052156433 -0.03231989 0.004927126 0.0025858288 -0.009856981 0.019291526
-0.011937983 0.038545173 0.0066293827 -0.053679038 0.018923957 0.003257064 0.032745484 -0.010455423
0.017851157 -0.02696225 -0.01199285 -0.013451877 -0.017783308 0.032991298 0.00031333975 0.0092664575
-0.04125759 -0.02560584 -0.007459774 -0.03592259 -0.019767707 -0.013577083 0.01651249 0.038135182
-0.018880142 0.044695936 -0.008313565 -0.018360827 -0.034010164 -0.024413373 -0.045075197 0.026112057
-0.004535408 0.024843207 0.03823359 -0.0050866455 0.015678931 -0.042789225 0.012770218 0.0312672
-0.000252705 -0.01077011 0.07232292 0.0017625513 -0.048588116 0.04037187 0.043785363 0.014440225
-0.053354807 0.015646469 -0.0298166 -0.010890916 0.022199763 -0.008531463 0.029718112 -0.0050317016
0.009901212 -0.00026213427 -0.0023376266 -0.02974882 -0.017423201 -0.024892868 -0.013673523 -0.01866471
0.023082165 0.0099604735 -0.029164197 -0.011483236 0.03675846 -0.022734769 0.024411393 -0.032150827
0.005160213 -0.014383824 -0.03727801 0.019586325 0.042978782 -0.033039786 -0.031405356 -0.021182673
00000000: 85fa 293b 8e8f 0d3c 3bb2 43bd 060e 043c
00000010: d09f bcbb 94ec 073c 3049 b1bd 02b5 293c
00000020: 5070 1dbd 463a 91bb 1f54 ccbc a976 d7bb
00000030: 4fd7 7ebd affc 2cbd c64d c5bc a475 cbbb
00000040: 9dd4 cc3c 2e4e 523c 7acf edbc 758d 85bc
00000050: 25b4 923c 3fb2 303d 60b8 1ebd 7e2f 013d
00000060: 5c94 893a bf3d 993c 88f4 9a3c 225f 0abb
00000070: 5553 8e3c 6541 b4bc b7cc ac3b 0b1f 263d
00000080: a281 01bd d4af bebc 84ae bbbc 1805 38bd
00000090: 457c 30bd a1bd a43c 1969 d8bc 8d43 d4bb
000000a0: 3b1f 693d 6bd0 eabc 1cbd 39bc fd07 09bc
000000b0: 2ed6 1d3d 0bef 16bd 64d1 5d3a 1b2e 5fbc
000000c0: 5c57 55bd fe6d 16bc a5ab e23c 120e b03c
000000d0: 0ec9 f73c be33 8cbc 1ee6 2e3b 02fc 8bba
000000e0: db5c d93c 9809 40bd 1160 acbb eb93 19bc
000000f0: 8c10 f2ba 0f37 99bc 12e8 783c b10b a6bc
00000100: c788 8f3c 8972 cabc b82f 77bb d7c3 293c
00000110: e732 9d3c a922 da3c d24d d6bb b178 133c
00000120: c072 3cbc 83ff 923b a05a 3f3d a133 733d
00000130: e130 153d 99d2 fdbc 0526 98bc 2dda 7ebc
00000140: 075a dfbc 4615 d53c 48ef 113c d514 09bd
00000150: 86e3 013d 2b0e 8a3c 05a7 f9bb e252 633c
00000160: d7fc 213d c0a5 11bd 79ca 923a fa78 e7bc
00000170: ee6d c9b9 71f7 34bc f4af 6ebd 6712 9c3c
00000180: 9d0e 0d3d 12eb 1d3d 734d 55bd 2e90 82bc
00000190: 5861 033d 0fb4 09bd 9511 fa3c 0c23 cebc
000001a0: f96e 27bc ec3e 05bd 0269 53bd 8459 2dbd
000001b0: 41fa a53c 4677 053c 857a 10bd 21ca fb3c
000001c0: 84e2 b4bc 371b da3c 7ef8 af3c 2baf fabc
000001d0: 31d8 623a d5e6 a53c e9b3 43bc e064 aa3c
000001e0: 5235 05bd af77 eb3c 7571 b4bc 2e95 ad3c
000001f0: 16ff 9ebb b03e 5fbc 04b8 c5bc 5b54 59bc
00000200: 684e 84bc 40d3 57bd 31d2 aabc e3a8 83ba
00000210: 1e6a 1dbc a4ba 563c fd02 edbb f3cd 46bc
00000220: e7ad 103c ff01 2c3c 17ae 193c 44ce 3e3b
00000230: 6cf9 d43b 1e61 883b 4fba 393d 6c6e 5d3b
00000240: 1888 c3bc 0ea7 e5bc f48e 1f3c 7584 823c
00000250: b95d 57bb 10d0 24bd 62bb c338 7f81 0a3c
00000260: 2d6e 2dbd 3a2f ff3c 9f46 143d 3aa1 dfbc
00000270: 5832 18bc 18ee 52bd 8ea5 8bbc 7a69 a7bc
00000280: 6c83 72bc 9a65 60bb 1e00 35bd b405 c9bc
00000290: 7814 cc3a 1623 723c 45ab 3ebd 41b9 a9bb
000002a0: 0d98 d8bc dd92 e93c fca1 553d dc61 04bd
000002b0: bb73 a13b 0277 293b 2d7f 21bc 4309 9e3c
000002c0: 8897 43bc 8be1 1d3d 4b3b d93b 8dde 5bbd
000002d0: 6a06 9b3c 7774 553b 2120 063d 394d 2bbc
000002e0: 973c 923c f0df dcbc a97d 44bc 4365 5cbc
000002f0: 4dae 91bc e221 073d c047 a439 57d2 173c
00000300: b8fd 28bd 57c3 d1bc 1f71 f4bb 9123 13bd
00000310: e3ef a1bc 6a72 5ebc 3445 873c a333 1c3d
00000320: 87aa 9abc 1613 373d 9e35 08bc 7269 96bc
00000330: 3e4e 0bbd 8efe c7bc c5a0 38bd f4e8 d53c
00000340: c39d 94bb fb83 cb3c d39a 1c3d e0ad a6bb
00000350: 1a71 803c c143 2fbd 2d3a 513c 0912 003d
00000360: 7e7d 84b9 1e75 30bc 0a1e 943d 6805 e73a
00000370: 5504 47bd f95c 253d 4858 333d b296 6c3c
00000380: 928a 5abd 062d 803c f141 f4bc d06f 32bc
00000390: 47dc b53c 8dc7 0bbc 6673 f33c f9e0 a4bb
000003a0: b138 223c 116f 89b9 de32 19bb ccb3 f3bc
000003b0: 1abb 8ebc 21ec cbbc ea06 60bc bce6 98bc
000003c0: cf16 bd3c 4131 233c c1e9 eebc 2f24 3cbc
000003d0: 0a90 163d 443e babc 67fa c73c 96b0 03bd
000003e0: 0117 a93b 21aa 6bbc d4b0 18bd 8073 a03c
000003f0: 850a 303d ba54 07bd e7a2 00bd 4987 adbc

dense1.bias f4 [128]
-0.026373718 -0.024447506 0.012843939 0.006315235 -0.021289894 -0.012186676 0.006341571 0.017334655
-0.06641924 0.04983083 -0.02852603 0.06847645 -0.016550949 -0.012265321 -0.0135605745 0.008809774
-0.004502745 -0.012474006 0.025351422 0.028712794 0.032287084 -0.028507428 -0.044481415 -0.0042454484
0.07316281 0.0043490124 0.007375474 0.07045641 0.0012240541 0.055598732 0.03476492 -0.031523578
0.014714455 0.013843722 -0.0025172755 -0.06361713 -0.012246524 -0.024732273 0.06000772 -0.011385924
-0.058317676 0.038437046 0.034653056 0.026856888 0.022925936 -0.0371983 0.004410641 -0.017247178
-0.0498053 0.06277778 -0.011100044 -0.03135871 -0.012928358 0.0030725894 -0.033028003 -0.034380518
-0.019146767 -0.019814502 -0.01905735 0.019858437 0.021916442 -0.025418775 -0.035663262 -0.021579409
0.022394408 0.05029617 -0.0099372985 0.012017242 0.0065544983 -0.03171788 -0.011044379 0.00020065093
-0.004517986 -0.08437637 0.013040937 0.039481122 -0.026812637 0.02278137 0.0413343 0.034903016
-0.005971192 -0.029147115 0.01285368 -0.015916316 -0.011760969 -0.012416507 -0.093184404 0.031242868
-0.021290671 0.036912013 -0.0760491 0.009282766 -0.021347374 0.024391523 0.031602215 0.019848922
-0.043454047 -0.011703397 -0.0030153128 0.039373275 0.08482769 0.015855009 -0.024632217 0.029993417
-0.044130627 0.015862068 -0.039031506 0.027862547 -0.009205237 0.0078037563 0.015189732 -0.055350777
0.012352407 -0.04581221 -0.0036938111 -0.042969547 -0.0017058764 0.00494674 -0.059889052 -0.018630726
-0.0027134626 -0.07548703 0.00567413 0.036463473 0.049663708 0.0036937094 0.0036415635 0.006629093
00000000: b20d d8bc 2346 c8bc 626f 523c 08f0 ce3b
00000010: 2568 aebc a0aa 47bc f4cc cf3b 6801 8e3c
00000020: cf06 88bd 6a1b 4c3d 6caf e9bc 623d 8c3d
00000030: db95 87bc 7cf4 48bc 2c2d 5ebc df56 103c
00000040: c38b 93bb c65f 4cbc c9ad cf3c 1837 eb3c
00000050: 763f 043d 6988 e9bc 2532 36bd 671d 8bbb
00000060: 62d6 953d 2982 8e3b f6ad f13b 734b 903d
00000070: 7170 a03a 7fbb 633d a965 0e3d de1e 01bd
00000080: e614 713c c7d0 623c e0f8 24bb b349 82bd
00000090: a5a5 48bc 569b cabc a8ca 753d 078c 3abc
000000a0: 84de 6ebd 2a70 1d3d 5df0 0d3d fa02 dc3c
000000b0: 2ccf bb3c 3f5d 18bd 2387 903b f449 8dbc
000000c0: a400 4cbd a391 803d f5dc 35bc fe71 00bd
000000d0: 77d1 53bc 7f5d 493b 5f48 07bd 96d2 0cbd
000000e0: aed9 9cbc 0652 a2bc 291e 9cbc 29ae a23c
000000f0: 1c8a b33c 093b d0bc a413 12bd 4dc7 b0bc
00000100: 7a74 b73c 5b03 4e3d 0dd0 22bc f7e3 443c
00000110: 1ec7 d63b 9cea 01bd 7cf3 34bc d365 5239
00000120: 9d0b 94bb 85cd acbd a7a9 553c f5b6 213d
00000130: 2da6 dbbc ff9f ba3c 284e 293d 77f6 0e3d
00000140: fda9 c3bb eec5 eebc 3e98 523c ef62 82bc
00000150: 14b1 40bc 9b6e 4bbc 77d7 bebd 0bf1 ff3c
00000160: c669 aebc 0d31 173d a1bf 9bbd be16 183c
00000170: b0e0 aebc bbd0 c73c 5371 013d 359a a23c
00000180: dffc 31bd 9bbf 3fbc 8e9c 45bb df45 213d
00000190: 24ba ad3d 5de2 813c 81c9 c9bc c1b4 f53c
000001a0: 51c2 34bd 2bf1 813c 80df 1fbd ff3f e43c
000001b0: 90d1 16bc a7b6 ff3b 5bde 783c 7fb7 62bd
000001c0: c061 4a3c 95a5 3bbd de13 72bb d600 30bd
000001d0: b797 dfba 4318 a23b 394e 75bd 779f 98bc
000001e0: 59d4 31bb f298 9abd 0dee b93b b95a 153d
000001f0: 2c6c 4b3d 2912 723b 4ca7 6e3b dd38 d93b

batch_norm2.weight f4 [128]
1.0130616 0.9410794 0.9088377 1.0613987 1.0469409 0.95230126 0.933719 1.0604552
1.0425311 1.0620794 0.9971362 0.90644735 1.0318286 0.9353791 0.9546267 0.8845908
1.0248315 0.9535723 0.99785626 1.0433002 0.9303705 0.98104966 1.0552895 0.912126
0.9204733 1.0357817 0.9719892 0.9052789 0.952803 0.96677107 1.0233412 1.0091318
0.9307746 1.0679115 0.9616058 0.9057136 1.0141672 0.93663585 1.0198289 1.0027926
1.0061673 0.9892981 1.0811248 1.007256 1.0662092 0.9357913 0.99560046 0.9079526
0.94182485 1.0094348 0.9866726 1.2331723 0.9114425 0.9791711 0.9631547 1.1150475
0.94184273 0.9596549 0.99861836 1.0675982 0.9206697 0.97287965 0.9464366 1.0377635
1.0468673 0.9770871 0.91581774 0.8981065 0.9353356 1.0447564 0.98439205 0.9913207
1.0361375 0.8821661 0.9813843 0.89422095 0.92962676 0.9358206 0.96121114 0.9312734
0.891908 1.0063183 0.96453613 1.0013543 1.030268 0.93002975 0.9605023 0.9132227
1.145571 1.0365883 0.98771214 0.9214945 0.9729274 0.9235213 1.0540824 1.0946634
0.97366506 0.8865167 1.0089575 0.9192039 1.0234693 0.9653504 0.97215015 1.0803496
0.90375173 0.9954843 0.9679396 0.96168953 0.88018554 0.98061126 1.0435367 0.996741
0.94290614 0.9991524 0.9163145 1.0097502 0.935355 0.9005866 1.0033834 0.93651044
0.860704 0.9865184 1.1038948 1.1926303 1.0434138 0.89976424 0.9230916 1.0274123
00000000: 01ac 813f 94ea 703f 96a9 683f eadb 873f
00000010: 2902 863f 04ca 733f 3508 6f3f ffbc 873f
00000020: a971 853f 38f2 873f 5144 7f3f ef0c 683f
00000030: f612 843f 0175 6f3f 6a62 743f 8b74 623f
00000040: ae2d 833f 501d 743f 8273 7f3f dc8a 853f
00000050: c32c 6e3f 1226 7b3f ba13 873f 1781 693f
00000060: 23a4 6b3f 7f94 843f 49d4 783f 5cc0 673f
00000070: e6ea 733f 4f7e 773f d8fc 823f 3b2b 813f
00000080: 3f47 6e3f 53b1 883f cc2b 763f d9dc 673f
00000090: 3bd0 813f 5ec7 6f3f c189 823f 825b 803f
000000a0: 17ca 803f a442 7d3f 4c62 8a3f c4ed 803f
000000b0: 8b79 883f 0590 6f3f acdf 7e3f 956f 683f
000000c0: 6f1b 713f 2935 813f 9396 7c3f 97d8 9d3f
000000d0: 4c54 693f f5aa 7a3f 4e91 763f e0b9 8e3f
000000e0: 9b1c 713f f2ab 753f 74a5 7f3f 0fa7 883f
000000f0: 02b1 6b3f a40e 793f ab49 723f 6fd5 843f
00000100: bfff 853f 6122 7a3f 0873 6a3f 4fea 653f
00000110: 2772 6f3f 94ba 853f 1e01 7c3f 32c7 7d3f
00000120: 27a0 843f a3d5 613f 003c 7b3f aaeb 643f
00000130: 05fc 6d3f f091 6f3f ef11 763f ef67 6e3f
00000140: 1554 643f 0acf 803f d7eb 763f 612c 803f
00000150: d2df 833f 6e16 6e3f 7be3 753f f6c8 693f
00000160: 12a2 923f edae 843f b4da 7c3f 10e7 6b3f
00000170: c511 793f e46b 6c3f 2cec 863f ee1d 8c3f
00000180: 1d42 793f c2f2 623f 8525 813f f250 6b3f
00000190: 0b01 833f 3421 773f d5de 783f e548 8a3f
000001a0: 465c 673f 0fd8 7e3f e4ca 773f 4931 763f
000001b0: d753 613f 5709 7b3f 9c92 853f 6b2a 7f3f
000001c0: 4c62 713f 74c8 7f3f 9693 6a3f 7f3f 813f
000001d0: 6d73 6f3f d88c 663f de6e 803f 26bf 6f3f
000001e0: 1957 5c3f 788c 7c3f 6d4c 8d3f 1ca8 983f
000001f0: 958e 853f f356 663f bb4f 6c3f 3f82 833f

batch_norm2.bias f4 [128]
0.039098673 0.05195577 -0.025722815 0.027258046 0.0030504528 0.0029289075 0.11319502 0.11954858
-0.026654169 -0.014289734 -0.1151032 -0.090328574 -0.04060394 0.022289518 0.03125681 0.038886957
-0.103590235 -0.027579093 -0.008975409 -0.063915595 0.032674357 -0.07171207 -0.015437226 0.029954717
-0.045320954 -0.11198223 -0.040622704 0.027585335 -0.070503205 -0.08323755 -0.19898778 0.06040876
0.02038671 -0.07958346 -0.020415656 0.035771754 0.037881415 -0.020804478 -0.061344154 -0.008331026
0.048096173 0.022651726 0.03141658 0.09547841 -0.028608033 -0.039982963 -0.055313546 0.017782988
-0.012427719 0.082848914 0.052634135 0.039255597 0.09937853 -0.0315579 -0.00094059046 0.050756734
0.034348052 0.01643016 -0.019328555 -0.18560427 0.08896753 -0.0042817905 0.053801466 -0.08531487
0.0041879513 -0.0035615263 0.07165035 -0.04379021 0.053981528 0.034124907 -0.03952712 0.014395192
0.04944614 0.03363947 0.03414477 0.11041689 -0.001765109 0.019464793 -0.022080313 -0.045285176
0.030257113 -0.05962819 -0.0022981868 0.019482313 -0.018668702 0.009813627 0.00093141536 0.04465593
-0.023229433 0.014426311 0.11894462 0.10257911 -0.04105606 0.09229383 -0.052858558 -0.096535176
-0.010665563 -0.033920784 -0.05960163 0.022628833 -0.014613042 -0.03687494 -0.013287339 -0.06242971
0.076135844 -0.00765394 -0.0019136334 -0.05436787 -0.0496401 0.008170544 -0.025122961 0.027600344
-0.04668751 0.018426688 -0.0060832016 0.022996604 -0.02380453 0.0035080588 -0.033661924 -0.072989754
-0.071050525 0.014691978 0.05270326 0.0339399 0.0103332745 -0.066484086 -0.03907051 0.12192382
00000000: ee25 203d 93cf 543d a7b8 d2bc 444c df3c
00000010: 1bea 473b eaf2 3f3b cad2 e73d e3d5 f43d
00000020: d859 dabc 7d1f 6abc 3abb ebbd 30fe b8bd
00000030: 5150 26bd 8298 b63c 2407 003d ee47 1f3d
00000040: 1e27 d4bd 8ded e1bc 980d 13bc 2ee6 82bd
00000050: 8cd5 053d c7dd 92bd 6bec 7cbc 9863 f53c
00000060: 77a2 39bd f056 e5bd fe63 26bd a4fa e13c
00000070: fc63 90bd 7378 aabd 74c3 4bbe 2d6f 773d
00000080: 0802 a73c a7fc a2bd bc3e a7bc 6785 123d
00000090: 8b29 1b3d 276e aabc 0244 7bbd db7e 08bc
000000a0: 7e00 453d 1d90 b93c acae 003d 2f8a c33d
000000b0: 655b eabc 2dc5 23bd 7590 62bd a1ad 913c
000000c0: a29d 4bbc b1ac a93d e496 573d 7aca 203d
000000d0: f986 cb3d db42 01bd f591 76ba 4be6 4f3d
000000e0: 8bb0 0c3d 8b98 863c eb56 9ebc 0c0f 3ebe
000000f0: 9c34 b63d 434e 8cbb ed5e 5c3d 90b9 aebd
00000100: 153b 893b 7f68 69bb 6bbd 923d 5d5d 33bd
00000110: bc1b 5d3d 8fc6 0b3d 30e7 21bd d0d9 6b3c
00000120: 0988 4a3d 8ac9 093d 63db 0b3d 4022 e23d
00000130: 3b5b e7ba a174 9f3c c6e1 b4bc f37c 39bd
00000140: c4dd f73c b03c 74bd 2d9d 16bb 5f99 9f3c
00000150: 1bef 98bc 56c9 203c 3a2a 743a 23e9 363d
00000160: a74b bebc 555c 6c3c 3d99 f33d ff14 d23d
00000170: 662a 28bd 8c04 bd3d 3782 58bd 3cb4 c5bd
00000180: 9dbe 2ebc 85f0 0abd d720 74bd 1a60 b93c
00000190: 8a6b 6fbc 2d0a 17bd 24b3 59bc 4cb6 7fbd
000001a0: 1ced 9b3d e7cd fabb e2d2 faba d8b0 5ebd
000001b0: 6b53 4bbd bfdd 053c abce cdbc 1e1a e23c
000001c0: 673b 3fbd 91f3 963c 9855 c7bb 6063 bc3c
000001d0: b801 c3bc 76e7 653b 16e1 09bd a77b 95bd
000001e0: f082 91bd 9fb6 703c 60df 573d 9104 0b3d
000001f0: e54c 293c cf28 88bd 6608 20bd 32b3 f93d

batch_norm2.running_mean f4 [128]
2.39493 1.5351428 1.2456189 2.047308 1.6663132 2.4338546 1.5698427 1.9653703
0.9851307 2.1046767 1.7645806 2.6769125 1.148377 1.6938409 1.844655 1.733171
1.8822663 1.2858412 2.1078436 0.8492367 2.3265324 1.989464 1.9844598 1.1033404
1.8727458 1.0323057 1.3281344 2.6010368 2.856643 2.5754628 0.9524982 1.541213
1.2970132 1.8725499 1.0600408 1.7304888 1.613569 0.76621217 2.4488914 1.3542948
1.1984657 2.6941977 0.9769582 2.442491 0.84820646 1.6714098 1.3800027 1.8537655
1.2955827 2.485718 1.5269707 2.0608065 1.6401327 2.5074978 1.111673 1.3632722
2.0389493 0.89448494 1.7412887 1.9418335 1.2613052 1.5953718 1.7477753 1.3709474
1.4287182 2.9577465 1.3431756 2.525247 1.1310889 1.4669245 2.371167 1.090167
1.8920758 1.3098779 1.1128092 1.7034243 1.6563638 1.5617322 1.9473041 2.8689842
1.4531896 0.93430156 1.8415242 1.6179255 2.334748 1.239601 1.9562182 2.9689684
2.2022994 2.4916556 1.2461283 1.3879069 2.3481548 2.4933634 1.1605357 1.8912286
1.0986948 1.0537982 1.7821535 2.2517629 2.813658 1.2940372 2.6286721 1.3349838
0.76136667 1.212349 1.690466 2.1565223 1.3696789 1.7437912 2.2342145 2.245603
2.0801756 1.919227 2.0439565 0.9083597 1.2850999 1.8562546 1.9218819 1.3996725
1.8816034 1.7723299 1.5833118 1.787258 2.7172995 2.6959295 1.7379745 1.6090192
00000000: 8846 1940 8f7f c43f 7170 9f3f 1807 0340
00000010: c049 d53f 46c4 1b40 9bf0 c83f 4191 fb3f
00000020: 8731 7c3f 06b3 0640 c7dd e13f 8952 2b40
00000030: 04fe 923f c7cf d83f a81d ec3f 8cd8 dd3f
00000040: 1aee f03f 7296 a43f e9e6 0640 9467 593f
00000050: e8e5 1440 c2a6 fe3f c702 fe3f 423a 8d3f
00000060: 22b6 ef3f 9822 843f 4f00 aa3f 6377 2640
00000070: 3dd3 3640 62d4 2440 ecd6 733f 7846 c53f
00000080: 8704 a63f b7af ef3f 6baf 873f a880 dd3f
00000090: 6e89 ce3f 7b26 443f a3ba 1c40 8859 ad3f
000000a0: 5367 993f bc6d 2c40 ef19 7a3f c651 1c40
000000b0: 0f24 593f c2f0 d53f eea3 b03f 3048 ed3f
000000c0: a7d5 a53f 0116 1f40 c773 c33f 41e4 0340
000000d0: deef d13f d87a 2040 4d4b 8e3f b47f ae3f
000000e0: 257e 0240 f7fc 643f 8ce2 de3f 008e f83f
000000f0: 7372 a13f 2535 cc3f 1ab7 df3f 347b af3f
00000100: 3de0 b63f b84b 3d40 2eed ab3f a69d 2140
00000110: 85c7 903f 2fc4 bb3f 33c1 1740 988a 8b3f
00000120: 8a2f f23f 14aa a73f 8870 8e3f cf09 da3f
00000130: bb03 d43f d7e6 c73f 4341 f93f 709d 3740
00000140: 1e02 ba3f 632e 6f3f 11b7 eb3f 2f18 cf3f
00000150: 836c 1540 3fab 9e3f 5c65 fa3f 9403 3e40
00000160: 79f2 0c40 4977 1f40 2281 9f3f efa6 b13f
00000170: 2b48 1640 4493 1f40 6f8c 943f c713 f23f
00000180: 08a2 8c3f dce2 863f 9b1d e43f e21c 1040
00000190: f912 3440 03a3 a53f 2a3c 2840 c0e0 aa3f
000001a0: ede8 423f 412e 9b3f 3161 d83f 7604 0a40
000001b0: a351 af3f 8d34 df3f 5ffd 0e40 f6b7 0f40
000001c0: 9921 0540 3ba9 f53f 2fd0 0240 438a 683f
000001d0: 277e a43f c099 ed3f 3a00 f63f 7828 b33f
000001e0: 61d8 f03f b5db e23f f6a9 ca3f dfc4 e43f
000001f0: 3ce8 2d40 1c8a 2c40 f375 de3f 57f4 cd3f

batch_norm2.running_var f4 [128]
90.524445 36.772385 12.955781 54.69292 3.1107283 81.21776 33.99164 3.8873823
17.842186 4.3292484 30.160654 3.7148252 24.41732 29.898594 50.93628 2.476902
3.389098 21.568905 60.814236 9.029217 4.525845 50.64808 55.205345 18.08192
3.170952 3.3713062 13.8728 3.5871089 4.027751 3.478605 13.101385 47.239628
18.358656 52.05813 17.258083 48.59375 24.709856 1.0859417 3.4468446 31.391846
23.336283 3.8584578 18.10848 2.807386 11.908244 42.453316 30.836832 40.100185
27.374565 3.5600638 34.78215 5.101206 40.655697 4.399116 27.21315 36.582413
57.808662 12.6182575 51.230442 47.163788 11.15896 29.809778 51.00678 27.49083
2.5918093 4.5051847 14.864792 4.9183173 17.542233 36.57299 79.86649 2.1631334
45.817886 27.842182 22.014448 43.32854 2.5822806 2.593315 3.1041021 3.7256904
15.942629 1.4526029 3.0047772 35.218266 5.031445 17.331547 36.231167 4.653133
97.31085 85.96807 14.10217 13.99322 59.610687 3.9772177 3.783991 38.785667
1.7076303 24.762217 48.394444 4.9522657 3.9689264 17.982931 4.070454 14.422243
1.825752 4.781337 45.01657 3.3798716 2.493248 28.052618 65.85233 3.345866
46.45564 56.266117 3.7752042 1.9501067 19.766375 33.375538 55.767876 32.01874
2.6845374 44.78871 2.8675787 42.75736 3.7446034 83.486275 3.1261716 38.613243
00000000: 840c b542 ec16 1342 e14a 4f41 8dc5 5a42
00000010: 2c16 4740 7e6f a242 70f7 0742 dfca 7840
00000020: ccbc 8e41 3489 8a40 0549 f141 b2bf 6d40
00000030: ac56 c341 5230 ef41 c0be 4b42 9085 1e40
00000040: fbe6 5840 1e8d ac41 c741 7342 ac77 1041
00000050: b9d3 9040 a297 4a42 46d2 5c42 c6a7 9041
00000060: e1f0 4a40 7bc3 5740 fdf6 5d41 3193 6540
00000070: 56e3 8040 77a1 5e40 469f 5141 61f5 3c42
00000080: 87de 9241 863b 5042 8e10 8a41 0060 4242
00000090: c9ad c541 2300 8b3f 1a99 5c40 8022 fb41
000000a0: b5b0 ba41 f9f0 7640 2bde 9041 36ac 3340
000000b0: 2b88 3e41 32d0 2942 d5b1 f641 9766 2042
000000c0: 1cff da41 16d8 6340 ec20 0b42 143d a340
000000d0: 6f9f 2242 8fc5 8c40 88b4 d941 6454 1242
000000e0: 123c 6742 62e4 4941 f9eb 4c42 b8a7 3c42
000000f0: 1a8b 3241 6d7a ee41 f106 4c42 38ed db41
00000100: 34e0 2540 792a 9040 30d6 6d41 db62 9d40
00000110: 7e56 8c41 be4a 1242 a5bb 9f42 c770 0a40
00000120: 8445 3742 cabc de41 971d b041 6d50 2d42
00000130: 1644 2540 dff8 2540 9ca9 4640 b671 6e40
00000140: 0215 7f41 e4ee b93f 454e 4040 81df 0c42
00000150: 9901 a140 02a7 8a41 b7ec 1042 77e6 9440
00000160: 289f c242 a7ef ab42 7da2 6141 3be4 5f41
00000170: 5871 6e42 bc8a 7e40 e92c 7240 8624 1b42
00000180: a193 da3f 0519 c641 e993 4142 f678 9e40
00000190: e402 7e40 0bdd 8f41 2941 8240 82c1 6641
000001a0: 3eb2 e93f b600 9940 f810 3442 d14f 5840
000001b0: 6091 1f40 c36b e041 65b4 8342 ab22 5640
000001c0: 93d2 3942 8110 6142 f29c 7140 199d f93f
000001d0: 8921 9e41 8d80 0542 4e12 5f42 3113 0042
000001e0: 76cf 2b40 a427 3342 6986 3740 8907 2b42
000001f0: 95a7 6f40 f9f8 a642 3213 4840 f673 1a42
